actor_ckpt.pth (torch, 549892 bytes, 10 tensors)

fc1.weight f4 [400, 33]
0.009382509 0.0032745716 -0.006484983 0.06154535 0.005856619 0.0063142977 0.08471729 -0.008898927
0.030155664 -0.05913309 -0.032682933 -0.042577814 0.11544086 -0.0011982516 -0.014962794 0.008377066
0.111819424 -0.008795211 0.017037464 0.06484191 -0.061407622 0.030446041 -0.15188886 0.039926987
-0.023274517 0.09098803 -0.061177157 -0.04235731 0.09273204 -0.0025705472 -0.03078186 0.01645017
0.24480003 -0.023161495 0.02507613 0.02299085 0.029699251 -0.003738949 0.0032540376 -0.09960711
-0.120398924 -0.12514198 0.104303755 0.042208165 -0.045663938 0.0045091244 -0.04008839 0.048028156
-0.009623624 -0.013262766 0.05813888 0.0029058717 0.002955196 -0.080019325 -0.03264 0.031936187
0.050266005 -0.053793546 -0.0042768107 -0.1535222 -0.013259669 -0.016860407 0.02897251 -0.001991273
-0.019650782 0.02848289 -0.079447426 0.015092261 0.014629998 0.025262216 -0.024628669 -0.0064430437
-0.08911023 -0.04207942 -0.10326503 -0.023757026 -0.023801439 -0.013334824 0.022048118 -0.06552918
0.0264979 0.021029238 0.0029906158 -0.027817339 0.05220599 0.016161963 -0.010261443 -0.21909305
0.0694267 0.00221003 -0.01359425 -0.02623751 -0.18817092 -0.02760583 0.018831654 -0.021043802
-0.00032171304 -0.030002033 0.03901677 0.036002155 0.022404531 -0.00033617546 -0.010063513 0.027421327
0.030359598 -0.03263652 -0.007354453 0.06509705 -0.10864024 -0.032993168 0.059872113 0.014176772
0.05033777 0.06934735 -0.032239392 0.05762399 0.07823167 0.06030896 -0.01675631 0.035527725
0.088414766 -0.050067786 0.03682192 0.026517872 -0.041380167 -0.08910082 -0.026750745 0.07828703
-0.021660006 0.02984301 -0.0375048 0.029075667 0.02894734 0.0423787 0.016699547 -0.1129319
-0.023726253 0.02599411 -0.030896934 0.057759807 0.017272862 0.12806089 0.032101586 0.016984507
0.07488401 -0.03222924 0.022106929 -0.006695936 -0.032751992 -0.103738144 -0.0028917694 0.0905655
0.021863947 0.038051095 0.047987834 0.10450191 0.010927251 0.023345752 -0.11357138 -0.037602432
0.08710006 -0.038001813 0.004075528 0.0089323 0.09947045 0.03507142 0.0049114404 -0.031228524
-0.042275224 -0.02018512 0.0974472 -0.029547459 -0.010803293 0.12523448 -0.073004864 -0.066608354
0.059818275 0.01322413 -0.004341148 0.00040476248 -0.049423102 -0.024402684 -0.06756572 -0.037875343
0.030178873 0.02067866 0.07298259 -0.033594884 -0.016046911 0.04478197 0.062338438 -0.02939759
-0.028029826 -0.058657225 -0.032632954 -0.043583833 0.031592432 -0.062411334 0.04459126 -0.02431091
-0.08745828 0.083965115 0.059325162 -0.037888546 0.05078138 0.02649679 0.016700666 0.01750188
0.07177456 0.009514118 -0.038391624 0.08972404 -0.006646914 -0.02048956 0.013371924 0.100751214
0.010066116 -0.044889655 -0.13355282 0.027829777 0.054544594 -0.058852546 0.013449474 0.030287076
0.14612795 -0.010571053 -0.016554967 0.012936551 0.04049868 -0.040353537 -0.04671815 -0.015794458
0.00061625347 0.108693786 0.061194602 0.0027180396 0.0159884 -0.04161174 -0.050524987 0.045565315
0.0019846528 0.012139723 -0.05387274 -0.025619661 0.08673386 -0.0464573 0.013402651 -0.0068811565
0.025145832 0.09370983 -0.12241915 0.019401683 -0.034395937 -0.040513303 0.033943158 0.01769894
00000000: 18b9 193c 329a 563b fb7f d4bb fa16 7c3d
00000010: e2e8 bf3b 2be8 ce3b 4280 ad3d cecc 11bc
00000020: 0309 f73c 8a35 72bd 8ade 05bd 1366 2ebd
00000030: 426c ec3d a70e 9dba 8226 75bc f63f 093c
00000040: 9501 e53d ca19 10bc 2792 8b3c d6cb 843d
00000050: 8f86 7bbd fa69 f93c c188 1bbe 7b8a 233d
00000060: 33aa bebc ef57 ba3d e694 7abd dc7e 2dbd
00000070: 4cea bd3d a076 28bb 3d2a fcbc 82c2 863c
00000080: dcac 7a3e 2dbd bdbc 756c cd3c 4f57 bc3c
00000090: d84b f33c 2809 75bb b141 553b d0fe cbbd
000000a0: b693 f6bd 3825 00be 359d d53d 78e2 2c3d
000000b0: 1c0a 3bbd 47c1 933b b933 24bd 2cb9 443d
000000c0: 68ac 1dbc 134c 59bc 0923 6e3d 7070 3e3b
000000d0: f6ab 413b 2ce1 a3bd 85b1 05bd 85cf 023d
000000e0: bae3 4d3d 9f56 5cbd 7d24 8cbb ec34 1dbe
000000f0: 153f 59bc d61e 8abc c257 ed3c 0480 02bb
00000100: adfa a0bc f354 e93c 55b5 a2bd 8845 773c
00000110: a9b2 6f3c b5f2 ce3c 10c2 c9bc 2b20 d3bb
00000120: 6d7f b6bd 785b 2cbd 9e7c d3bd 189e c2bc
00000130: 3cfb c2bc 4e7a 5abc 419e b43c 2a34 86bd
00000140: 2012 d93c 8245 ac3c 35fe 433b 30e1 e3bc
00000150: f3d5 553d 1866 843c 9d1f 28bc ee59 60be
00000160: 962f 8e3d 27d6 103b 6bba 5ebc 0cf0 d6bc
00000170: e1af 40be 9f25 e2bc d744 9a3c 0d64 acbc
00000180: 98ab a8b9 d3c6 f5bc 0cd0 1f3d ff76 133d
00000190: b589 b73c b540 b0b9 6fe1 24bc b1a2 e03c
000001a0: b1b4 f83c dfad 05bd a0fd f0bb 9a51 853d
000001b0: c67e debd d823 07bd 763c 753d b145 683c
000001c0: fa2e 4e3d fc05 8e3d 740d 04bd 2207 6c3d
000001d0: ed37 a03d 8706 773d 8744 89bc 8585 113d
000001e0: cd12 b53d e113 4dbd 95d2 163d 023c d93c
000001f0: 407e 29bd 7e7a b6bd 6124 dbbc f354 a03d
00000200: 5370 b1bc 5479 f43c a29e 19bd 1830 ee3c
00000210: f922 ed3c 4a95 2d3d 7dcd 883c d748 e7bd
00000220: 8f5d c2bc 9af1 d43c 911b fdbc 8c95 6c3d
00000230: d17f 8d3c 6522 033e f47c 033d 1823 8b3c
00000240: ca5c 993d cf02 04bd 9719 b53c 9569 dbbb
00000250: f426 06bd aa74 d4bd d783 3dbb 687a b93d
00000260: 051c b33c 77db 1b3d e48e 443d 1905 d63d
00000270: 3608 333c 973f bf3c 1d98 e8bd 0205 1abd
00000280: 8461 b23d caa7 1bbd 028c 853b c858 123c
00000290: 2ab7 cb3d 0da7 0f3d 26f0 a03b f6d2 ffbc
000002a0: c928 2dbd 445b a5bc 6692 c73d 830d f2bc
000002b0: 4c00 31bc 783d 003e 9383 95bd f669 88bd
000002c0: 0204 753d 05aa 583c 3040 8ebb 4d36 d439
000002d0: e16f 4abd 23e8 c7bc e55f 8abd 2d23 1bbd
000002e0: af39 f73c 4b66 a93c e577 953d ca9a 09bd
000002f0: d074 83bc 4d6d 373d 9756 7f3d 37d3 f0bc
00000300: ce9e e5bc 8f42 70bd 22aa 05bd f684 32bd
00000310: 1167 013d 07a3 7fbd 53a5 363d ac27 c7bc
00000320: 541d b3bd e7f5 ab3d f1fe 723d 0531 1bbd
00000330: 2300 503d cc0f d93c d6cf 883c 1a60 8f3c
00000340: 8afe 923d 1ae1 1b3c 8940 1dbd 3dc1 b73d
00000350: 5bce d9bb b9d9 a7bc ea15 5b3c a756 ce3d
00000360: 5aec 243c 37de 37bd 12c2 08be 46fb e33c
00000370: 276a 5f3d 5e0f 71bd 2f5b 5c3c 9a1c f83c
00000380: 91a2 153e 3632 2dbc 489e 87bc d4f3 533c
00000390: f2e1 253d c049 25bd 885b 3fbd 6163 81bc
000003a0: 128c 213a d99a de3d 31a7 7a3d 2321 323b
000003b0: 1bfa 823c 1271 2abd 4af3 4ebd b2a2 3a3d
000003c0: f310 023b b0e5 463c aaa9 5cbd 53e0 d1bc
000003d0: 86a1 b13d 034a 3ebd cb96 5b3c 537b e1bb
000003e0: a2fe cd3c f0ea bf3d e4b6 fabd 47f0 9e3c
000003f0: c1e2 0cbd 47f1 25bd fb07 0b3d 5efd 903c

fc1.bias f4 [400]
0.04884979 0.15531345 0.091708705 0.029089136 -0.11786742 0.116239846 0.00013640434 0.057746466
-0.083335705 -0.14484604 -0.15517065 -0.052465014 -0.12930198 -0.15080294 0.17146872 0.06898
-0.023097537 -0.154149 -0.1235643 -0.16427642 -0.04340489 0.12377208 -0.02291428 0.03864729
-0.012777743 0.10555682 0.16646667 -0.07084901 -0.13399707 0.10211202 0.115211695 0.013840154
-0.07825806 -0.041070607 0.09855016 0.0520081 -0.060534406 0.04952761 0.054471154 -0.049964305
-0.09982527 0.04263237 0.04281119 0.16889061 -0.02871015 0.025719577 0.03853536 0.07814244
0.08176136 -0.121368214 0.14784431 0.0341306 0.17377713 -0.13418472 0.15506864 0.12743303
-0.06647665 -0.16063926 0.028366132 0.106343776 -0.088926464 0.07228976 0.027326284 0.14782913
0.16959693 0.07909422 -0.030370213 -0.058251634 0.12274907 -0.09398404 -0.064705215 -0.101852566
-0.1735753 0.15668471 0.111638844 0.07129633 0.1284804 0.12409441 0.12022141 -0.113431446
0.11356779 -0.0123352455 0.16705857 0.15319815 0.03890456 -0.09378228 0.16389799 -0.17241849
-0.0747628 0.05171674 0.020150412 -0.13191648 -0.10169167 0.033962887 -0.033575222 -0.1404364
0.10096664 0.1283143 -0.016830903 0.08816203 0.036107786 0.0966527 0.001101311 0.052751064
0.12099717 -0.05411162 0.12514547 0.048729397 -0.14090075 0.13834126 -0.068148516 -0.17035966
-0.044023186 -0.17212266 -0.049877413 -0.043159995 -0.12531619 0.14180106 0.10868004 0.08765979
0.16068745 -0.07069334 0.067042075 0.12957025 0.13934477 0.06373458 0.07981712 0.15721619
0.14542536 -0.13879529 0.1429868 -0.0683965 0.11290339 -0.16966242 0.15529288 0.14517015
-0.049696393 0.15895262 0.035056233 -0.11484865 0.068674736 -0.10997834 -0.091079265 0.14980695
0.005230616 -0.09462676 -0.16663812 -0.008917682 0.019702025 -0.030296441 0.007853798 0.14244588
-0.1590029 0.040430214 -0.020058999 -0.15339044 -0.16915128 -0.00805631 -0.16772327 0.17216209
-0.1491603 -0.0049072746 -0.0041741487 -0.101736255 0.16273378 -0.025166508 -0.066719614 0.14085409
0.05674786 -0.052379664 -0.16883375 -0.033503976 -0.043317564 -0.047554303 0.10342324 -0.013027777
0.047630228 0.14204323 0.0028749064 0.1641536 0.07308939 -0.13018358 0.08733428 -0.07201645
0.13744044 0.04957507 -0.10513753 -0.10521983 -0.17247507 -0.16653082 -0.11061785 0.044636868
-0.049951307 0.033678275 -0.14865638 -0.0008798018 -0.082328856 0.045462366 -0.12078705 0.083520986
-0.07257167 0.019280165 -0.07399489 0.14814141 0.016456757 0.084607355 -0.068644285 0.13952464
-0.0644133 0.11079018 0.16690172 -0.08761588 0.039339133 0.0353053 -0.0007153407 0.0753098
0.15408666 -0.0012299861 0.042558692 0.10806324 -0.14310041 0.10262959 0.005381677 -0.1264936
0.07154612 -0.07989042 -0.12803222 -0.056781944 0.02260027 0.10036196 -0.07691186 0.14583722
-0.12368332 -0.12730518 0.06848694 0.1635871 0.13181621 0.12555426 0.010512912 -0.061865162
-0.12940551 -0.12415344 0.053975575 -0.012290461 -0.02766545 -0.03319029 -0.00033464513 -0.10199419
-0.039501227 0.14279935 -0.09250433 -0.012923663 -0.1374744 -0.069761336 0.05895325 0.07537765
00000000: b816 483d 7d0a 1f3e c6d1 bb3d 574c ee3c
00000010: 7964 f1bd 280f ee3d c307 0f39 8f87 6c3d
00000020: e9ab aabd 8552 14be 0ee5 1ebe 8ee5 56bd
00000030: bd67 04be 166c 1abe 7f95 2f3e 6345 8d3d
00000040: 0c37 bdbc 3cd9 1dbe 480f fdbd 1438 28be
00000050: 53c9 31bd 377c fd3d bab6 bbbc 9f4c 1e3d
00000060: bd59 51bc 2d2e d83d 3d76 2a3e 4919 91bd
00000070: 8736 09be 1b20 d13d 1cf4 eb3d d0c1 623c
00000080: c345 a0bd a739 28bd abd4 c93d 7206 553d
00000090: edf2 77bd 77dd 4a3d 251d 5f3d 5fa7 4cbd
000000a0: 3171 ccbd 489f 2e3d c95a 2f3d a9f1 2c3e
000000b0: 8c31 ebbc ddb1 d23c 41d7 1d3d 2509 a03d
000000c0: 8072 a73d e68f f8bd 8064 173e 87cc 0b3d
000000d0: a2f2 313e b867 09be 50ca 1e3e ce7d 023e
000000e0: e924 88bd 9e7e 24be 1760 e83c c4ca d93d
000000f0: 141f b6bd a70c 943d 5fdb df3c 8560 173e
00000100: d1aa 2d3e 27fc a13d f4ca f8bc 4499 6ebd
00000110: dd63 fb3d b47a c0bd 2b84 84bd 1498 d0bd
00000120: b9bd 31be f571 203e e8a2 e43d cf03 923d
00000130: 5e90 033e 3625 fe3d a536 f63d bf4e e8bd
00000140: 3b96 e83d c519 4abc 6711 2b3e fadf 1c3e
00000150: 635a 1f3d ed10 c0bd e0d4 273e 798e 30be
00000160: 3d1d 99bd efd4 533d 7a12 a53c 1d15 07be
00000170: b943 d0bd ab1c 0b3d 2c86 09bd 8fce 0fbe
00000180: 99c7 ce3d d364 033e f6e0 89bc 4b8e b43d
00000190: c2e5 133d daf1 c53d dd59 903a 8011 583d
000001a0: 5dcd f73d 25a4 5dbd 2226 003e 7a98 473d
000001b0: 4948 10be 55a9 0d3e 7391 8bbd c372 2ebe
000001c0: a851 34bd ec40 30be 424c 4cbd 89c8 30bd
000001d0: e352 00be 4c34 113e a493 de3d fa86 b33d
000001e0: 408b 243e abc7 90bd 5b4d 893d 10ae 043e
000001f0: 65b0 0e3e 4787 823d 2977 a33d 48fd 203e
00000200: 63ea 143e 5a20 0ebe 226b 123e 7713 8cbd
00000210: e439 e73d fcbb 2dbe 1905 1f3e 7ca7 143e
00000220: 728e 4bbd 7ac4 223e 2097 0f3d c535 ebbd
00000230: 57a5 8c3d 533c e1bd c487 babd fe66 193e
00000240: 9665 ab3b adcb c1bd 2fa3 2abe 781b 12bc
00000250: 2466 a13c 3e30 f8bc 37ad 003c 55dd 113e
00000260: a8d1 22be 279a 253d c552 a4bc 6212 1dbe
00000270: fe35 2dbe 9dfe 03bc a6bf 2bbe 424b 303e
00000280: 7abd 18be 34cd a0bb 4cc7 88bb 195b d0bd
00000290: afa3 263e fe29 cebc 4ba4 88bd 0e3c 103e
000002a0: 7270 683d 0f8c 56bd c1e2 2cbe 773b 09bd
000002b0: c26d 31bd 4dc8 42bd 90cf d33d 7572 55bc
000002c0: ea17 433d c873 113e ed68 3c3b e217 283e
000002d0: e4af 953d d84e 05be 51dc b23d 5c7d 93bd
000002e0: 30bd 0c3e 3b0f 4b3d 5852 d7bd 7f7d d7bd
000002f0: 4e9d 30be 0e87 2abe 9d8b e2bd 26d5 363d
00000300: be99 4cbd 3bf2 093d 6139 18be 80a2 66ba
00000310: 089c a8bd bf36 3a3d 335f f7bd 0d0d ab3d
00000320: 75a0 94bd 70f1 9d3c a28a 97bd 62b2 173e
00000330: 52d0 863c 9f46 ad3d 6095 8cbd 8cdf 0e3e
00000340: 1feb 83bd f6e5 e23d 49e8 2a3e f46f b3bd
00000350: 1222 213d 4a9c 103d b485 3bba 063c 9a3d
00000360: e5c8 1d3e 7c37 a1ba 0652 2e3d 4350 dd3d
00000370: ea88 12be 762f d23d c758 b03b 8a87 01be
00000380: c686 923d 979d a3bd e11a 03be 2f94 68bd
00000390: 3424 b93c 928a cd3d f783 9dbd 5a56 153e
000003a0: ae4d fdbd 4a5c 02be e142 8c3d 6083 273e
000003b0: d4fa 063e 4c91 003e 593e 2c3c 5366 7dbd
000003c0: e182 04be 2944 febd 7e15 5d3d ee5d 49bc
000003d0: a7a2 e2bc 8bf2 07bd 4f73 afb9 54e2 d0bd
000003e0: 0acc 21bd fe39 123e e972 bdbd c5bd 53bc
000003f0: 17c6 0cbe 08df 8ebd f778 713d 995f 9a3d

fc2.weight f4 [300, 400]
0.058178764 0.033109695 0.01654967 -0.025734482 -0.049502686 -0.03068696 0.052594636 -0.0312185
0.065467454 -0.010688518 -0.043307327 0.016937174 0.007940483 -0.029499626 -0.010844703 -0.03253083
-0.038720004 0.01306183 0.059281975 0.093907274 0.037428133 -0.016575424 0.0996821 0.04003556
0.058291588 0.0639936 -0.02961396 -0.06778969 0.067153946 0.019727575 0.055234607 -0.04384998
-0.061354794 -0.041872896 -0.019419095 0.066665195 -0.009723522 0.07213441 0.05821175 0.0003649424
0.023576275 0.006815472 0.066505365 0.025581142 -0.011548721 -0.027358642 0.004586295 0.028237764
0.06846255 -0.015345901 -0.050371353 0.037825666 0.033835553 0.05336192 0.047090977 0.030784687
0.0500633 -0.015071267 0.00089708215 -0.032939304 0.023522122 0.060083624 -0.026812755 0.014369982
0.043986727 -0.010007129 0.026693486 0.0069355173 -0.019504525 0.040746335 0.014410732 0.04467981
0.017740387 0.043342866 0.06064257 -0.044466283 -0.014004517 -0.006214038 0.048233155 0.071492806
0.0418232 0.06423744 0.030438222 0.031694602 -0.0028142205 0.053448297 0.032517403 0.05440957
0.083124705 -0.029483419 -0.04967684 -0.030195689 -0.042860705 -0.0036881124 -0.0436212 0.025412086
0.08272305 -0.014364384 0.00072939385 0.006758684 0.06706903 -0.016449835 0.029130228 0.028377444
0.020679293 0.07750952 0.010018227 0.0161734 0.05070207 0.047282808 0.07039288 0.04196542
-0.02928531 0.08183906 0.039439272 -0.0034573774 0.047792345 0.073896326 -0.05148307 0.054025836
0.0049411464 -0.05955326 0.028137265 -0.013559951 -0.023167565 0.017403558 0.09668625 0.07520375
0.009758002 0.007182215 0.06598279 0.042888485 0.02647381 -0.033745475 -0.00091382005 0.079010464
0.019167267 0.051211376 0.063820966 0.05114707 0.069216326 -0.013551259 -0.03652048 0.029857546
-0.049384568 -0.037059363 -0.04194096 0.04839408 0.0010347853 -0.017717022 0.0533957 -0.017154355
-0.0094404 -0.06171045 0.009462643 -0.0054928525 0.03992546 0.057697795 -0.059588343 -0.0060351375
0.025153337 -0.015248143 0.009449788 -0.032138627 0.06018886 0.073822916 0.07011985 -0.038358927
0.014850289 -0.0452318 0.016023567 0.039368894 -0.038553216 0.027112989 -0.022730706 0.06458994
0.063400656 -0.02324067 -0.011084771 0.013210832 0.04287438 0.055243887 0.03517233 -0.03199888
0.073813096 -0.014693729 -0.03719309 -0.025489064 -0.01183086 -0.049397323 0.028150387 -0.008153048
-0.047417503 0.017115716 0.0061428603 0.013465932 0.030355139 -0.012622662 0.05034819 0.048148576
-0.05074091 -0.035398982 -0.0016559737 0.06830369 0.083386384 0.042600248 0.0027339584 -0.010381854
0.020826187 0.043217044 0.05029178 0.03848074 0.008348476 -0.07055614 -0.0060596545 0.029659426
-0.044294253 0.040152356 0.107663564 -0.031778228 -0.024979893 0.009250673 0.024632221 0.046959024
0.06426921 0.0035873048 -0.042864893 0.04571985 0.04321614 0.059726946 -0.020264652 0.018696474
0.016008638 0.021660862 0.050896082 0.035631213 0.062844425 -0.021992054 -0.010039952 0.048256088
0.029041084 0.037090305 -0.00069019693 0.07457488 0.0029498194 -0.07088655 0.06978459 -0.011236701
0.04230569 0.031855144 -0.048087813 -0.04227265 0.028102621 0.07491917 -0.019257331 0.05540294
00000000: db4c 6e3d 089e 073d 2c93 873c 1fd1 d2bc
00000010: 54c3 4abd 3863 fbbc 796d 573d f1bd ffbc
00000020: cd13 863d e51e 2fbc 0663 31bd d4bf 8a3c
00000030: cd18 023c 33a9 f1bc fbad 31bc 0c3f 05bd
00000040: de98 1ebd 4901 563c a8d1 723d 7552 c03d
00000050: 3e4e 193d 2fc9 87bc 2126 cc3d 54fc 233d
00000060: 29c3 6e3d 140f 833d fa98 f2bc 52d5 8abd
00000070: 0288 893d b99b a13c af3d 623d 099c 33bd
00000080: 2a4f 7bbd ea82 2bbd cb14 9fbc c387 883d
00000090: 684f 1fbc 35bb 933d 726f 6e3d bd55 bf39
000000a0: 0823 c13c 5354 df3b f733 883d 8b8f d13c
000000b0: d936 3dbc 3b1f e0bc a248 963b e252 e73c
000000c0: 1836 8c3d 606d 7bbc 3152 4ebd 16ef 1a3d
000000d0: 2697 0a3d 0792 5a3d 78e2 403d 2b30 fc3c
000000e0: 2d0f 4d3d 7aed 76bc 2a2a 6b3a 5deb 06bd
000000f0: 77b1 c03c 3f1a 763d 6ca6 dbbc 1370 6b3c
00000100: 6d2b 343d f1f4 23bc 4cac da3c 5643 e33b
00000110: f4c7 9fbc a1e5 263d fe1a 6c3c 2d02 373d
00000120: 4a54 913c 4a88 313d 5864 783d 4722 36bd
00000130: 3473 65bc 219f cbbb 2190 453d d26a 923d
00000140: ce4e 2b3d eb8e 833d 9459 f93c 33d2 013d
00000150: c96e 38bb 9aec 5a3d f830 053d 92dc 5e3d
00000160: 493d aa3d 3687 f1bc f179 4bbd f35c f7bc
00000170: b58e 2fbd 42b4 71bb 25ac 32bd 022d d03c
00000180: b46a a93d 9858 6bbc cb34 3f3a f377 dd3b
00000190: 7d5b 893d cec1 86bc 84a2 ee3c d077 e83c
000001a0: 9f67 a93c 50bd 9e3d 7d23 243c 147e 843c
000001b0: f9ac 4f3d 9eab 413d 242a 903d efe3 2b3d
000001c0: bfe7 efbc 3d9b a73d 138b 213d 2b95 62bb
000001d0: e8c1 433d f556 973d e9df 52bd 324a 5d3d
000001e0: 57e9 a13b 1fee 73bd 1f80 e63c 8f2a 5ebc
000001f0: e8c9 bdbc e891 8e3c 7103 c63d 6c04 9a3d
00000200: 07e0 1f3c c958 eb3b fc21 873d d6ab 2f3d
00000210: 9bdf d83c b238 0abd 6d8d 6fba 3dd0 a13d
00000220: ac04 9d3c 05c3 513d 91b4 823d 977f 513d
00000230: 4ac1 8d3d 1a06 5ebc 8096 15bd d097 f43c
00000240: 7947 4abd 8fcb 17bd 49ca 2bbd df38 463d
00000250: a2a1 873a 4a23 91bc 73b5 5a3d 4a87 8cbc
00000260: e8ab 1abc 19c4 7cbd 3409 1b3c 63fd b3bb
00000270: e188 233d 8654 6c3d e812 74bd 67c2 c5bb
00000280: 5f0e ce3c 59d3 79bc 49d3 1a3c cba3 03bd
00000290: 9888 763d 7830 973d ff9a 8f3d 401e 1dbd
000002a0: a04e 733c fb44 39bd db43 833c 4741 213d
000002b0: fae9 1dbd 0f1c de3c bf35 babc bb47 843d
000002c0: 34d8 813d 3863 bebc e69c 35bc 3f72 583c
000002d0: 0c9d 2f3d 6a47 623d dc10 103d 4211 03bd
000002e0: 522b 973d f7bd 70bc c857 18bd 71ce d0bc
000002f0: 39d6 41bc d954 4abd a49b e63c 5d94 05bc
00000300: db38 42bd 4236 8c3c 0c4a c93b 36a0 5c3c
00000310: 57ab f83c 48cf 4ebc e739 4e3d 7137 453d
00000320: b3d5 4fbd 86fe 10bd 420d d9ba cee2 8b3d
00000330: 7bc6 aa3d 997d 2e3d 362c 333b a718 2abc
00000340: ae9b aa3c 5b04 313d c1fe 4d3d fb9d 1d3d
00000350: 0cc8 083c bd7f 90bd 1190 c6bb 53f8 f23c
00000360: e46d 35bd cc76 243d b77e dc3d e329 02bd
00000370: a2a2 ccbc 2390 173c 83c9 c93c 1b58 403d
00000380: 939f 833d fd18 6b3b 1993 2fbd bd44 3b3d
00000390: 6803 313d 3ea4 743d 0e02 a6bc 5929 993c
000003a0: 8c24 833c 1f72 b13c 6978 503d 09f2 113d
000003b0: 94b4 803d ae28 b4bc 9c7e 24bc 2da8 453d
000003c0: 91e7 ed3c 01ec 173d 55ee 34ba b7ba 983d
000003d0: c251 413b f82c 91bd 39eb 8e3d 241a 38bc
000003e0: bb48 2d3d 8a7a 023d baf7 44bd 1626 2dbd
000003f0: 7837 e63c 396f 993d 8dc1 9dbc 31ee 623d

fc2.bias f4 [300]
-0.03902892 0.00678536 0.082555614 0.046569705 0.060833044 0.041989468 0.02445197 -0.0048504374
0.008783149 0.059588447 -0.020551391 -0.008582145 -0.0067630047 -0.038222525 -0.048654594 -0.0011278805
-0.017193677 0.1424382 0.04102194 0.0258921 0.07483908 0.024241868 -0.05938082 -0.01666596
0.061404422 0.027456991 -0.0140405325 0.013340547 -0.031602174 -0.051872097 0.01299693 0.012937242
0.021453597 -0.015875412 0.018235127 0.044547334 0.011440031 0.009664185 -0.002363657 0.038542807
-0.013521252 0.048389707 0.01975871 -0.020202115 0.0047501875 -0.039311707 0.033037506 -0.021121271
0.0955309 -0.019561458 0.0018335546 -0.016528806 -0.017958 0.030879742 0.019086225 -0.0079779485
0.0033159836 -0.0054635154 -0.0060036452 0.09224 0.01677212 -0.007352787 -0.0077019357 0.041284412
-0.055844117 0.011943207 -0.012499141 -0.005493734 0.026616879 0.012239081 0.0674638 0.031229096
0.039055023 -0.031952947 0.13338982 0.07651918 0.022087889 0.019172797 0.039841544 -0.05769412
-0.024604697 0.018595807 0.01780273 0.0051035555 0.04409892 -0.017539032 0.0005361692 0.10583787
0.07527606 0.03562117 -0.050463147 -0.046420008 0.0070601557 0.009400197 -0.015292667 0.039088935
0.021322634 -0.013139629 0.0019235956 -0.0069236658 0.11996308 0.118509896 0.0397339 -0.04077627
-0.05042848 -0.018842746 -0.029173704 -0.043940324 0.0018093113 0.005871516 0.048092183 0.042326514
-0.03799843 -0.01670204 -0.021951955 -0.0494632 -0.007287221 0.0065288246 0.020124452 0.010593431
0.021710388 -0.029694863 0.033254065 -0.04415289 0.0405937 -0.0043010507 0.027626302 0.036546927
0.03484921 -0.024257215 -0.0014934511 -0.030870322 0.08379926 -0.030960677 0.00037261873 -0.037360802
-0.0031488081 0.021982636 0.02325521 0.015489666 -0.030054942 0.10397218 -0.010054094 -0.023077816
0.110433295 0.042150643 -0.020293824 -0.009392228 0.052446075 0.029800434 -0.0026962825 -0.03774817
0.018595485 -0.040170245 -0.03590869 0.05757898 -0.025481705 -0.07004092 -0.020616664 0.032802127
-0.012417117 0.002896606 0.012565042 0.033100326 0.04210796 0.055383883 -0.038979348 -0.0018488083
-0.013750301 -0.0016072335 0.0033249203 -0.045690544 -0.0052886787 -0.017498802 -0.007355016 -0.008204878
-0.016549706 0.008355682 -0.03815272 -0.03407848 0.119494624 0.0054760966 0.034925796 0.039615594
-0.0016909202 -0.029614843 0.032986116 0.020598393 0.027576696 -0.0040878127 0.04666505 -0.0013184658
0.05324143 -0.015325835 -0.012533769 0.024682676 -0.0466436 -0.01941291 0.0030526102 0.0030387847
-0.009821016 0.003446065 0.014948952 -0.008110506 0.0020215504 -0.04816851 -0.074829124 0.05813717
0.07449117 0.06772743 0.028879693 -0.012915961 -0.021812914 0.10613816 0.043551546 0.027920619
0.033117272 -0.012252255 -0.052033674 0.034448218 0.038183425 -0.051726617 0.010182659 -0.032990377
0.003996981 -0.004509562 0.04355786 0.014147026 0.012243044 0.038836632 -0.006908839 0.008433095
0.071688145 0.017378677 0.0051949564 0.024107527 0.0027197169 0.043946173 -0.006215844 -0.031368226
-0.029265182 -0.004743003 -0.025791068 -0.031077676 -0.017672248 -0.043337714 -0.010054373 -0.05087045
0.0034325705 0.013959426 -0.0346 0.14315522 0.035610538 -0.008862582 -0.01488392 0.030956635
00000000: cadc 1fbd ba57 de3b eb12 a93d e0bf 3e3d
00000010: 122c 793d 26fd 2b3d 7f4f c83c 6bf0 9ebb
00000020: 32e7 0f3c 0413 743d 645b a8bc 209c 0cbc
00000030: 329c ddbb 398f 1cbd 0a4a 47bd 64d5 93ba
00000040: c1d9 8cbc 52db 113e 9f06 283d ab1b d43c
00000050: 3b45 993d e296 c63c 4d39 73bd 0d87 88bc
00000060: 3483 7b3d 7ced e03c 430a 66bc 4f92 5a3c
00000070: 4871 01bd d677 54bd 13f1 543c baf6 533c
00000080: 74bf af3c 270d 82bc d561 953c 4477 363d
00000090: f86e 3b3c 8856 1e3c 96e7 1abb 10df 1d3d
000000a0: 3e88 5dbc 4934 463d 05dd a13c e87e a5bc
000000b0: 76a7 9b3b 5005 21bd 5652 073d 8406 adbc
000000c0: b4a5 c33d 5a3f a0bc e253 f03a 6b67 87bc
000000d0: a81c 93bc 83f7 fc3c b75a 9c3c f1b5 02bc
000000e0: f950 593b 4a07 b3bb 3aba c4bb 53e8 bc3d
000000f0: af65 893c a6ef f0bb 8560 fcbb d819 293d
00000100: cdbc 64bd 71ad 433c 32c9 4cbc c804 b4bb
00000110: a40b da3c 6d86 483c 762a 8a3d 29d4 ff3c
00000120: 29f8 1f3d 18e1 02bd 5797 083e 16b6 9c3d
00000130: a9f1 b43c 4510 9d3c e330 233d ab50 6cbd
00000140: ca8f c9bc 3c56 983c 08d7 913c ba3b a73b
00000150: 12a1 343d 04ae 8fbc b58d 0c3a 86c1 d83d
00000160: 562a 9a3d 81e7 113d 72b2 4ebd e822 3ebd
00000170: e158 e73b 4903 1a3c 188e 7abc b81b 203d
00000180: ceac ae3c 9947 57bc 2821 fc3a ebdf e2bb
00000190: 34af f53d 51b5 f23d 04c0 223d 0505 27bd
000001a0: 188e 4ebd 1a5c 9abc b1fd eebc c5fa 33bd
000001b0: 6a26 ed3a d965 c03b 4ffc 443d 915e 2d3d
000001c0: 3ea4 1bbd b7d2 88bc 96d4 b3bc ed99 4abd
000001d0: a4c9 eebb c0ef d53b 09dc a43c 1290 2d3c
000001e0: fcd9 b13c a442 f3bc 6a35 083d a9d9 34bd
000001f0: 9445 263d d4ef 8cbb 8e50 e23c 3bb2 153d
00000200: 0cbe 0e3d 11b7 c6bc e7bf c3ba c2e3 fcbc
00000210: f29e ab3d 3fa1 fdbc 0a5c c339 a407 19bd
00000220: 3c5c 4ebb ee14 b43c b681 be3c 5ec8 7d3c
00000230: c835 f6bc 5eef d43d edb9 24bc b00d bdbc
00000240: da2a e23d 27a6 2c3d 3c3f a6bc dce1 19bc
00000250: b2d1 563d 0a20 f43c 1db4 30bb d39d 1abd
00000260: 8f55 983c 8e89 24bd fe14 13bd f0d7 6b3d
00000270: 02bf d0bc 9d71 8fbd 47e4 a8bc 865b 063d
00000280: 2a71 4bbc fcd4 3d3b 9bdd 4d3c 3594 073d
00000290: 6579 2c3d 36da 623d cfa8 1fbd b653 f2ba
000002a0: f148 61bc cfa9 d2ba e8e6 593b 0226 3bbd
000002b0: a74c adbb a659 8fbc 5902 f1bb c16d 06bc
000002c0: 4093 87bc 45e6 083c 0746 1cbd e095 0bbd
000002d0: 99b9 f43d d470 b33b 5a0e 0f3d f643 223d
000002e0: dea1 ddba d49a f2bc 731c 073d f6bd a83c
000002f0: 86e8 e13c 0ff3 85bb da23 3f3d 5fd0 acba
00000300: b013 5a3d 3619 7bbc 705a 4dbc 5333 ca3c
00000310: 5c0d 3fbd d307 9fbc 4d0e 483b 5926 473b
00000320: 54e8 20bc 60d7 613b 73ec 743c eee1 04bc
00000330: fd7b 043b 584c 45bd 0340 99bd 3e21 6e3d
00000340: d48e 983d aeb4 8a3d 1b95 ec3c 789d 53bc
00000350: ffb0 b2bc f75e d93d 1b63 323d c8b9 e43c
00000360: faa5 073d afbd 48bc 4321 55bd 9319 0d3d
00000370: 3966 1c3d 4adf 53bd 2bd5 263c eb20 07bd
00000380: 1bf9 823b f3c4 93bb ba69 323d eec8 673c
00000390: 0c97 483c 2913 1f3d 8b63 e2bb f72a 0a3c
000003a0: 3cd1 923d ba5d 8e3c 743a aa3b 267d c53c
000003b0: 473d 323b e700 343d 47ae cbbb f87b 00bd
000003c0: 89bd efbc 316b 9bbb ca47 d3bc 9c96 febc
000003d0: 64c5 90bc e382 31bd 19bb 24bc 885d 50bd
000003e0: faf4 603b 14b6 643c bbb8 0dbd 4897 123e
000003f0: 5bdc 113d 5d34 11bc afdb 73bc c598 fd3c

fc3.weight f4 [4, 300]
0.02290409 0.16861846 -0.15887944 0.07043215 0.027394535 0.04155705 0.060330197 0.087521374
0.040791783 0.05503563 0.016529417 -0.019047026 0.031567324 0.033391066 0.0058078375 0.039159346
0.04070369 -0.04562129 0.04207707 0.044639505 -0.05599924 0.03836316 0.042385582 0.061095987
0.0901391 0.02803657 0.030232672 -0.051933445 0.020265434 -0.03356928 0.044516776 0.027855026
0.022935122 0.2007109 0.061353557 -0.10753859 0.030276528 0.061730105 -0.00798723 0.018896533
0.011942421 0.04121018 -0.00038347457 0.0021136014 0.12428414 0.009916779 -0.03042252 0.022531882
0.03272502 0.111658186 0.038666137 0.036054317 0.030725436 0.03147029 0.008808541 0.08615887
0.008128997 0.024320148 0.032377303 0.04468814 0.03178586 0.034958944 0.053853456 0.034614738
0.0094036795 0.040396206 0.009870981 0.025202245 0.014843962 0.027346577 0.031536512 0.024995359
0.053897016 0.022776878 -0.022688365 -0.12786761 0.04521184 0.036549516 0.02253959 0.041660916
0.03242893 0.062461767 0.020374311 0.10146079 -0.088565946 0.05339779 0.09506555 0.034613475
-0.10519518 0.02796036 0.027320333 0.03555909 0.16525349 0.06845452 0.024185473 0.03854045
0.029987507 0.018424556 0.064199276 0.027155159 0.049912937 -0.16801292 0.063004255 0.036595177
0.029742643 0.041269545 0.03421691 0.0068091294 0.028027575 0.037000813 0.046194497 0.035416767
0.05481383 -0.047766026 -0.005605599 0.004819744 0.024279961 0.024799122 0.041505564 0.07281358
0.035954226 0.036900196 -0.11630982 0.043929093 0.023291204 0.02424168 0.034021437 0.027547175
0.028002432 0.035651054 0.11614848 0.031663854 0.024133826 0.025327995 0.07463475 0.033461083
0.04582514 0.036373634 0.0742437 0.034819126 0.033086587 -0.11900727 0.05015919 0.024162723
0.024757914 0.025085313 0.029671181 0.07933353 0.03549965 0.026502386 0.042092312 0.03289568
0.16319227 0.033777907 0.045716602 -0.12758256 0.042160146 0.02870238 0.17067854 0.033108957
0.040646173 0.11381662 0.05412 -0.06853157 0.044366293 -0.020227255 -0.03415872 0.10400697
0.07756749 0.06086017 0.027561048 0.020614637 0.05011345 0.08825613 0.10239073 -0.035946716
-0.06101669 0.0036121167 0.03869574 0.0137828775 0.051803704 0.091081485 -0.070371866 0.022073897
0.14899372 0.0034553003 0.031520482 0.03915403 -0.08389252 0.07569576 0.064504266 -0.043499086
-0.09999736 0.08392192 0.044188928 0.035319448 0.060136296 0.024616478 0.031147037 -0.06470398
0.05033339 0.03392255 0.032831907 0.026303593 0.032789413 0.018670175 0.053530656 -0.13495794
-0.0779673 0.040783778 0.03716836 0.031535532 0.05167485 -0.0862942 0.1428649 0.037543852
0.05984514 0.040846825 0.030391814 0.030012183 -0.002889672 0.01338715 0.053530913 0.0052980226
0.06958626 0.025027452 0.037414722 0.034813315 0.034140624 -0.072256595 0.020924008 0.032546844
0.062199537 0.030101633 0.045949716 0.003822472 0.026100013 0.05832096 0.021663573 0.09489246
0.029161101 -0.0017294203 0.0670155 0.049259346 0.028843055 0.03493544 -0.00413195 0.002389478
0.03966406 0.034685615 0.031593993 0.039898165 -0.07512051 0.031859446 0.15007384 0.042496555
00000000: 5ca1 bb3c 51aa 2c3e 4bb1 22be bb3e 903d
00000010: 816a e03c ba37 2a3d cc1c 773d 683e b33d
00000020: 4915 273d 0a6d 613d b368 873c 8208 9cbc
00000030: bd4c 013d 12c5 083d ac4f be3b 8d65 203d
00000040: eab8 263d 64dd 3abd 0159 2c3d ead7 363d
00000050: 765f 65bd b022 1d3d 819c 2d3d c93f 7a3d
00000060: d99a b83d f3ac e53c 82aa f73c 2ab8 54bd
00000070: b203 a63c f17f 09bd 3957 363d 3930 e43c
00000080: 70e2 bb3c 2887 4d3e de4d 7b3d 313d dcbd
00000090: 7b06 f83c b5d8 7c3d dfdc 02bc e7cc 9a3c
000000a0: 25aa 433c 01cc 283d 160d c9b9 5984 0a3b
000000b0: af88 fe3d fc79 223c a638 f9bc c894 b83c
000000c0: ac0a 063d 0cad e43d 6260 1e3d b1ad 133d
000000d0: e9b3 fb3c fee6 003d b351 103c 1074 b03d
000000e0: 7c2f 053c 0c3b c73c 109e 043d e90a 373d
000000f0: e431 023d 1c31 0f3d 7195 5c3d 2fc8 0d3d
00000100: e411 1a3c 7e76 253d e5b9 213c f074 ce3c
00000110: 1734 733c ee05 e03c 6e2c 013d 11c3 cc3c
00000120: 1ec3 5c3d 9396 ba3c f3dc b9bc baef 02be
00000130: 0d30 393d f2b4 153d f2a4 b83c a3a4 2a3d
00000140: 33d4 043d e9d7 7f3d 07e8 a63c adca cf3d
00000150: 1062 b5bd a4b7 5a3d bab1 c23d dcc6 0d3d
00000160: 9270 d7bd 200d e53c e4ce df3c 69a6 113d
00000170: 3638 293e e231 8c3d 9d20 c63c 97dc 1d3d
00000180: 5ca8 f53c 18ef 963c e97a 833d 7f74 de3c
00000190: 8271 4c3d 940b 2cbe 6008 813d d3e4 153d
000001a0: d8a6 f33c 410a 293d 0827 0c3d 1e1f df3b
000001b0: 169a e53c 2a8e 173d 7136 3d3d 2c11 113d
000001c0: 7784 603d 4fa6 43bd 2caf b7bb f1ee 9d3b
000001d0: c5e6 c63c 8727 cb3c bd01 2a3d 491f 953d
000001e0: bd44 133d a924 173d d833 eebd feee 333d
000001f0: 32cd be3c 7d96 c63c 105a 0b3d 9daa e13c
00000200: 5b65 e53c d706 123d 41df ed3d f5b1 013d
00000210: 4db4 c53c a87c cf3c 1bda 983d 7d0e 093d
00000220: 24b3 3b3d 85fc 143d 150d 983d 809e 0e3d
00000230: cd85 073d 15ba f3bd b973 4d3d e7f0 c53c
00000240: 1cd1 ca3c b77f cd3c fa10 f33c 9e79 a23d
00000250: 1568 113d 881b d93c fd68 2c3d 9fbd 063d
00000260: e01b 273e b45a 0a3d 5541 3b3d 01a5 02be
00000270: 1eb0 2c3d 4121 eb3c 5bc6 2e3e 429d 073d
00000280: 9a7c 263d b018 e93d efac 5d3d 485a 8cbd
00000290: 6eb9 353d a1b3 a5bc 04ea 0bbd 9b01 d53d
000002a0: b4db 9e3d 8348 793d b5c7 e13c 07e0 a83c
000002b0: c343 4d3d a1bf b43d 3bb2 d13d dd3c 13bd
000002c0: a3ec 79bd 43b9 6c3b 6d7f 1e3d 94d1 613c
000002d0: 1f30 543d ee88 ba3d 201f 90bd 51d4 b43c
000002e0: cf91 183e 5272 623b 9f1b 013d fa5f 203d
000002f0: d7cf abbd 6106 9b3d d01a 843d 192c 32bd
00000300: 6acb ccbd 41df ab3d 73ff 343d 20ab 103d
00000310: 7a51 763d 7fa8 c93c 1228 ff3c 8583 84bd
00000320: 622a 4e3d 5ff2 0a3d c07a 063d a27a d73c
00000330: 314e 063d 32f2 983c f642 5b3d 6a32 0abe
00000340: 52ad 9fbd e40c 273d da3d 183d 672b 013d
00000350: 02a9 533d 03bb b0bd 2d4b 123e 95c7 193d
00000360: 2d20 753d 004f 273d 41f8 f83c 1cdc f53c
00000370: a760 3dbb c755 5b3c 3b43 5b3d 099b ad3b
00000380: 3e83 8e3d 5f06 cd3c 2e40 193d 6898 0e3d
00000390: 0ad7 0b3d 44fb 93bd d368 ab3c d74f 053d
000003a0: f1c4 7e3d b397 f63c c535 3c3d 7082 7a3b
000003b0: b2cf d53c f5e1 6e3d ce77 b13c fa56 c23d
000003c0: 43e3 ee3c b7ad e2ba 6c3f 893d 2bc4 493d
000003d0: 4548 ec3c 7718 0f3d 4f65 87bb ca98 1c3b
000003e0: c876 223d 8112 0e3d b468 013d 426c 233d
000003f0: c8d8 99bd 0d7f 023d f5ac 193e de10 2e3d

fc3.bias f4 [4]
0.017786652 -0.042277534 -0.00993171 0.05255431
00000000: 50b5 913c 352b 2dbd 9cb8 22bc 3043 573d

batch_norm.weight f4 [400]
1.0942662 1.2174925 1.1977446 1.0286129 1.1095396 1.0131949 1.0782737 1.1431599
1.0742487 1.1405698 1.0611401 1.1721627 0.9868872 1.0157789 0.98950773 1.088193
1.0551184 1.1877252 1.2520213 1.1672618 1.0696667 1.0905039 1.1587987 1.1457443
1.0719278 1.0503922 1.0628642 1.1866943 1.0154738 1.0341948 1.0782062 1.2485691
1.0973579 1.0411001 1.0859103 1.1012491 1.0065988 1.0516691 1.1395081 1.0391133
1.2442364 1.0910852 1.1871489 1.0270251 1.0823362 1.0114683 1.108757 1.1715294
1.0653707 1.1006861 1.2376794 1.1531663 1.0513028 1.1518475 1.0558646 1.2134707
1.063517 1.0119896 1.0925343 1.0804205 1.1789111 1.0874406 1.0000939 1.0242127
1.0396013 1.0861703 1.0194496 1.1491109 1.0159271 1.1105818 1.0395215 1.0983424
1.1762166 1.0043851 1.1861038 1.0602623 1.0991856 1.1429927 1.0628438 1.06656
0.98022676 0.9901653 1.0076369 1.1046878 1.0437744 1.0518624 0.9965864 1.0642331
1.1806486 1.1539701 1.0754253 0.99211925 1.0070931 1.0376961 1.1351365 1.0320444
1.1317828 1.13836 1.004037 1.0627954 1.0814537 1.0552278 1.0575047 1.109285
1.1409887 1.115553 1.0284636 1.138826 1.0297061 1.1925795 1.098302 1.1541145
1.0443224 1.0618633 1.031461 1.0742602 1.1855351 1.1187392 1.0395889 1.0215707
1.1851305 1.0088947 1.0657954 1.0511969 1.0779129 0.998622 1.0994092 1.0887495
1.1292319 1.049326 1.0994475 1.0679117 1.1326506 1.0118936 1.141976 1.1955178
1.0520972 1.069821 1.026163 0.9695783 1.1575853 0.96368563 1.0512191 1.1358175
1.0994139 1.0560645 1.0747343 1.0630323 1.0070138 0.9862634 1.063719 1.0430266
1.1488152 1.09818 1.173273 1.0133916 1.0012876 0.99087685 1.0183176 1.0367543
1.2471405 1.0585446 1.1371772 1.0658958 0.9661131 1.1576794 1.1334128 1.0341612
1.030837 1.0361929 1.1657434 1.0416042 1.051423 1.0987201 1.0519165 1.0953346
1.1009465 1.0730307 1.0393634 1.152006 1.1048033 1.1273376 1.1074803 1.1157348
1.1060473 0.99471694 0.9856223 1.0745863 1.0475473 1.0578803 1.086978 1.0439062
1.0966982 1.0626503 1.065529 1.0180182 1.0685806 1.0755394 1.0856755 1.0117581
1.0656071 1.0680412 1.0050962 1.1515716 1.0828211 1.2039325 1.064463 1.0613168
1.0406379 1.0542779 0.9604958 1.0755255 0.9953236 1.0956521 1.1687539 1.0020297
1.0827522 1.0552018 1.1716747 1.1528628 1.0459409 0.9985232 1.1449857 1.1669339
1.0859631 1.152875 0.9905158 1.0702971 1.1391207 1.1264724 1.0708798 1.1828544
1.0460497 1.0121329 1.1189603 1.0571145 1.1249938 1.0981439 0.9995432 1.0358953
1.0995667 1.1769892 1.1851867 1.0687625 0.9954624 1.1302854 1.1450341 1.1777582
1.0906845 1.0173681 1.0956917 1.028414 1.113621 1.1487765 1.1143225 1.0210097
00000000: ea10 8c3f cbd6 9b3f b24f 993f 96a9 833f
00000010: 6505 8e3f 5fb0 813f df04 8a3f 1053 923f
00000020: fb80 893f 31fe 913f 70d3 873f 6d09 963f
00000030: a4a4 7c3f 0b05 823f 6150 7d3f e949 8b3f
00000040: 1f0e 873f 6107 983f 3c42 a03f d668 953f
00000050: d7ea 883f a295 8b3f 8453 943f c0a7 923f
00000060: ee34 893f 4073 863f ef0b 883f 99e5 973f
00000070: 0cfb 813f 7f60 843f a902 8a3f 1dd1 9f3f
00000080: 3976 8c3f c542 853f 1cff 8a3f bbf5 8c3f
00000090: 3bd8 803f 189d 863f 67db 913f aa01 853f
000000a0: 2343 9f3f aea8 8b3f 7ff4 973f 8f75 833f
000000b0: fe89 8a3f cb77 813f c0eb 8d3f adf4 953f
000000c0: 115e 883f 48e3 8c3f 476c 9e3f f49a 933f
000000d0: 1791 863f bd6f 933f 9226 873f 0253 9b3f
000000e0: 5321 883f e088 813f 2ad8 8b3f 384b 8a3f
000000f0: 8fe6 963f 4131 8b3f 1403 803f 6719 833f
00000100: a811 853f a107 8b3f 537d 823f 1116 933f
00000110: e609 823f 8b27 8e3f 0a0f 853f 7c96 8c3f
00000120: 448e 963f b18f 803f 40d2 973f adb6 873f
00000130: 1db2 8c3f 964d 923f 440b 883f 0a85 883f
00000140: 24f0 7a3f 797b 7d3f 3ffa 803f 6966 8d3f
00000150: 669a 853f 6da3 863f 4920 7f3f ca38 883f
00000160: 7e1f 973f 4bb5 933f 89a7 893f 87fb 7d3f
00000170: 6de8 803f 3ad3 843f 274c 913f 081a 843f
00000180: 42de 903f c8b5 913f 4984 803f ae09 883f
00000190: 136d 8a3f b411 873f 505c 873f 0dfd 8d3f
000001a0: eb0b 923f 71ca 8e3f b2a4 833f 0dc5 913f
000001b0: 69cd 833f 72a6 983f 2995 8c3f 06ba 933f
000001c0: 5bac 853f 23eb 873f ea06 843f 5c81 893f
000001d0: 9dbf 973f d932 8f3f 4011 853f d4c2 823f
000001e0: 5bb2 973f 7623 813f fc6b 883f 9f8d 863f
000001f0: 0df9 893f b1a5 7f3f 71b9 8c3f 255c 8b3f
00000200: ac8a 903f 5050 863f b2ba 8c3f 55b1 883f
00000210: b2fa 903f bb85 813f 452c 923f ba06 993f
00000220: 1fab 863f e5ef 883f 4f59 833f 4936 783f
00000230: c12b 943f 1ab4 763f 598e 863f 7862 913f
00000240: 98b9 8c3f 1f2d 873f e590 893f 7111 883f
00000250: d4e5 803f c27b 7c3f f227 883f e581 853f
00000260: 600c 933f 2a91 8c3f cf2d 963f d1b6 813f
00000270: 312a 803f 1baa 7d3f 3b58 823f 5db4 843f
00000280: 4da2 9f3f 647e 873f 068f 913f 466f 883f
00000290: 3053 773f d72e 943f ac13 913f 655f 843f
000002a0: 78f2 833f f8a1 843f 1437 953f 4953 853f
000002b0: 0795 863f dca2 8c3f 33a5 863f ed33 8c3f
000002c0: d1eb 8c3f 1259 893f dc09 853f ef74 933f
000002d0: 326a 8d3f 994c 903f eac1 8d3f 66d0 8e3f
000002e0: f592 8d3f c5a5 7e3f be51 7c3f 0b8c 893f
000002f0: 0816 863f 9f68 873f 1822 8b3f b89e 853f
00000300: 9b60 8c3f ed04 883f 4163 883f 6c4e 823f
00000310: 40c7 883f 46ab 893f 6af7 8a3f 4a81 813f
00000320: d065 883f 93b5 883f fea6 803f b366 933f
00000330: e299 8a3f 761a 9a3f 5340 883f 3bd9 873f
00000340: 9f33 853f 94f2 863f 0ee3 753f d2aa 893f
00000350: 87cd 7e3f 543e 8c3f ba99 953f 8242 803f
00000360: a097 8a3f da10 873f 70f9 953f 0291 933f
00000370: 64e1 853f 379f 7f3f e48e 923f 175e 953f
00000380: d700 8b3f 6891 933f 7292 7d3f 7fff 883f
00000390: b5ce 913f 3f30 903f 9712 893f c667 973f
000003a0: f5e4 853f 928d 813f 173a 8f3f 874f 873f
000003b0: ccff 8f3f fb8f 8c3f 10e2 7f3f 3898 843f
000003c0: 9abe 8c3f 95a7 963f 33b4 973f 36cd 883f
000003d0: a0d6 7e3f 31ad 903f 7a90 923f c8c0 963f
000003e0: 8d9b 8b3f 1e39 823f a03f 8c3f 12a3 833f
000003f0: 228b 8e3f 1c0b 933f 1fa2 8e3f 72b0 823f

batch_norm.bias f4 [400]
-0.07317612 0.060646914 0.0742466 0.02115208 -0.038915552 0.004636714 0.08475948 0.089573845
0.03963334 0.030771589 0.026018651 -0.009156184 -0.032962147 -0.005377406 0.012436571 0.017317552
0.024162596 0.029982885 0.06931198 0.018855754 0.0056008245 0.046767402 0.020576376 -0.009462016
-0.02183835 0.012947435 0.034162123 -0.039570224 -0.022040408 -0.017400825 0.009038771 0.08622921
0.00433843 0.019585572 0.06350615 0.02805394 -0.022606537 0.030361593 0.007337732 -0.019604558
0.095322475 -0.015112057 -0.012310515 -0.03170478 0.06835243 0.011715475 -0.069006905 0.02822555
0.03015596 0.029253049 0.0066187265 0.0648854 0.022257268 0.027677294 0.01787313 0.03935303
0.01182016 -0.03237017 0.019336702 0.027319258 0.028634913 -0.011838475 -0.026197337 -0.012250656
-0.013515184 0.054751176 0.018558335 0.09125854 -0.027103836 0.052685052 0.030469822 0.056168918
0.024745887 -0.03912477 0.03026173 -0.0029501969 0.060123563 0.040188648 0.035644062 0.032741982
-0.04988718 -0.016414175 -0.07350773 0.06559962 -0.036812637 0.00870729 -0.023322545 0.043261897
0.07695349 0.052426968 -0.02972122 -0.0351202 0.01619899 0.020237394 0.019162884 -0.0066348584
-0.001540506 0.057842195 -0.0047637685 0.050279353 0.046683915 -0.05706298 0.014824915 0.01675497
-0.010061044 0.06328288 -0.024221724 -0.0024721406 -0.050557107 0.06804874 -0.011221145 0.0047017476
-0.004745644 0.027775018 0.043073397 0.055270508 0.049422994 0.058652643 0.02690746 0.02539834
0.07847401 -0.06496662 -0.0014961245 -0.014039059 0.009771215 0.023497352 0.017774303 0.014807266
-0.02937816 -0.009873784 -0.0020168384 0.014187128 -0.01109742 -0.018581197 0.009104323 0.020172363
0.03258883 0.027804952 -0.02696013 -0.11730551 -0.028457869 -0.06568335 -0.088252865 -0.009030326
0.045788344 0.051619686 -0.004188901 0.048546217 -0.00036191253 -0.019091638 -0.0047768936 0.013055451
-0.009161043 -0.0021355005 0.04127309 -0.025138732 -0.049213544 -0.016115699 0.033770256 -0.06011072
0.05243435 0.014317107 -0.026429476 0.044049453 -0.04400618 0.023350023 0.046148367 0.03171746
-0.018203326 -0.044248875 0.08899811 0.03522734 -0.04609625 0.07799619 0.018264135 0.063356705
-0.026198205 0.074466445 0.009582398 0.0062707923 -0.0150109315 0.04120769 0.023519251 0.08701798
-0.0047967625 -0.032885704 -0.05269711 -0.07258215 0.021025624 0.034961496 -0.008744296 0.04028227
0.022649674 0.027904073 0.041189384 -0.016202077 -0.04822689 0.07187187 0.050076433 -0.035446428
0.03504935 0.0019389814 -0.03686761 0.02623431 -0.016611567 0.082954064 -0.005559611 0.047672696
-0.033317048 0.024424072 0.00045940102 0.029683039 -0.027733395 0.031943366 0.072546855 0.019709552
0.022426864 0.03316086 -0.009643028 -0.028089726 -0.016459571 -0.010246888 0.02775816 0.031104319
0.033335816 0.010642595 -0.09071871 -0.008759156 0.038724437 0.056599032 -0.012958516 0.033176504
0.0015440369 -0.041576285 0.06265275 0.05678314 0.00509873 0.033159655 -0.023133993 -0.032014877
0.049979325 0.044524834 0.034080535 0.021910742 -0.051814195 0.028282456 -0.00949029 0.087061726
0.07891255 -0.021479992 0.07315417 -0.019702734 -0.008474312 0.07899173 0.038646378 0.024086658
00000000: 5ddd 95bd e668 783d 9a0e 983d 2047 ad3c
00000010: ea65 1fbd 93ef 973b 6196 ad3d 7e72 b73d
00000020: 9256 223d b314 fc3c 1125 d53c d203 16bc
00000030: 5103 07bd f334 b0bb c2c2 4b3c 8add 8d3c
00000040: a3f0 c53c ab9e f53c 70f3 8d3d 6277 9a3c
00000050: 1f87 b73b 2d8f 3f3d ca8f a83c 9206 1bbc
00000060: 57e6 b2bc 7a21 543c 95ed 0b3d 6314 22bd
00000070: 168e b4bc 2d8c 8ebc 5a17 143c f198 b03d
00000080: 6329 8e3b ec71 a03c 830f 823d 60d1 e53c
00000090: 5831 b9bc e0b8 f83c 5b71 f03b bd99 a0bc
000000a0: 6e38 c33d 9098 77bc 0bb2 49bc dfdc 01bd
000000b0: 5cfc 8b3d 43f2 3f3c 7e53 8dbd 4539 e73c
000000c0: a209 f73c 17a4 ef3c e7e1 d83b a3e2 843d
000000d0: e054 b63c 7ebb e23c ac6a 923c a530 213d
000000e0: 58a9 413c 9596 04bd 0168 9e3c a3cc df3c
000000f0: c493 ea3c 2af6 41bc cc9b d6bc fab6 48bc
00000100: ca6e 5dbc c542 603d a607 983c c2e5 ba3d
00000110: dd08 debc 48cc 573d d99b f93c 6111 663d
00000120: e3b7 ca3c 4b41 20bd 73e7 f73c 1758 41bb
00000130: 2044 763d da9c 243d 82ff 113d 751c 063d
00000140: 8056 4cbd 0577 86bc 398b 96bd 1859 863d
00000150: d9c8 16bd 05a9 0e3c ec0e bfbc 6333 313d
00000160: cb99 9d3d a9bd 563d ea79 f3bc 33da 0fbd
00000170: bfb3 843c e4c8 a53c 7bfb 9c3c 3a69 d9bb
00000180: ceea c9ba f0eb 6c3d 6319 9cbb b9f1 4d3d
00000190: a237 3f3d dfba 69bd 33e4 723c b841 893c
000001a0: 14d7 24bc 749a 813d a36c c6bc a303 22bb
000001b0: f814 4fbd 235d 8b3d e5d8 37bc 1e11 9a3b
000001c0: 5981 9bbb 6f88 e33c bb6d 303d 5463 623d
000001d0: c46f 4a3d c13d 703d 096d dc3c 2e10 d03c
000001e0: fbb6 a03d 380d 85bd 9c19 c4ba 1504 66bc
000001f0: 7217 203c 857d c03c 6a9b 913c 2d9a 723c
00000200: 78aa f0bc a7c5 21bc ef2c 04bb 2171 683c
00000210: f4d1 35bc 9837 98bc 4c2a 153c 8340 a53c
00000220: dd7b 053d 36c7 e33c 7edb dcbc df3d f0bd
00000230: 7a20 e9bc fe84 86bd ebbd b4bd eff3 13bc
00000240: 8f8c 3b3d 2a6f 533d 0c43 89bb 66d8 463d
00000250: 14bf bdb9 1166 9cbc 7d87 9cbb 88e6 553c
00000260: 3318 16bc c1f3 0bbb f90d 293d beef cdbc
00000270: 2494 49bd 1205 84bc ae52 0a3d a936 76bd
00000280: 67c5 563d 4d92 6a3c a182 d8bc 336d 343d
00000290: d33f 34bd 8c48 bf3c 1206 3d3d 2bea 013d
000002a0: 241f 95bc 4f3e 35bd a444 b63d 8b4a 103d
000002b0: 6ccf 3cbd 77bc 9f3d ab9e 953c 29c1 813d
000002c0: 9e9d d6bc dd81 983d 7eff 1c3c 387b cd3b
000002d0: 69f0 75bc 65c9 283d 72ab c03c 7c36 b23d
000002e0: 292e 9dbb 29b3 06bd edd8 57bd f3a5 94bd
000002f0: ee3d ac3c c933 0f3d 3c44 0fbc 06ff 243d
00000300: cf8b b93c 1597 e43c 33b6 283d 38ba 84bc
00000310: 8f89 45bd 8f31 933d f21c 4d3d 4630 11bd
00000320: e88f 0f3d 6b25 fe3a 7e02 17bd 56e9 d63c
00000330: fb14 88bc d2e3 a93d 662d b6bb 7244 433d
00000340: 7577 08bd fe14 c83c c3db f039 d829 f33c
00000350: 2531 e3bc 0cd7 023d 7293 943d ed75 a13c
00000360: 8bb8 b73c afd3 073d cafd 1dbc 6d1c e6bc
00000370: 39d6 86bc 90e2 27bc 1565 e33c 7cce fe3c
00000380: 238b 083d 475e 2e3c bbca b9bd 9082 0fbc
00000390: 849d 1e3d 63d4 673d f54f 54bc 16e4 073d
000003a0: 4861 ca3a e54b 2abd 1650 803d 7095 683d
000003b0: 3f13 a73b 6bd2 073d 8083 bdbc 0822 03bd
000003c0: 1fb7 4c3d ac5f 363d 0898 0b3d 287e b33c
000003d0: 1f3b 54bd 9cb0 e73c 297d 1bbc 6b4d b23d
000003e0: e79c a13d cff6 afbc dad1 953d a167 a1bc
000003f0: d7d7 0abc 6bc6 a13d aa4b 1e3d 6251 c53c

batch_norm.running_mean f4 [400]
-0.6394829 -0.3144709 0.17561255 -0.07039328 0.5568024 -0.14865285 -0.39044192 -0.106781855
-0.24633119 -0.6376038 -0.22554605 0.13884386 -0.032785892 -0.46434397 0.1570375 0.24889906
-0.34959415 -0.4467589 -0.1871619 -0.4239848 0.7726932 -0.30343077 -0.12671506 0.52747136
0.3974694 0.6291128 0.5912839 0.80860937 -0.20383905 1.0466325 -0.047498096 0.31616217
0.8510942 -0.1597177 -0.07657907 0.13303262 0.08530754 0.02123082 -0.29098213 -0.08584878
0.24616227 0.460959 -0.47377998 0.33280712 0.009148661 -0.27167088 0.6564662 -0.15819426
0.28110686 -0.53152466 1.4031687 0.35040832 -0.3153129 -0.4794009 0.27752492 -0.378018
0.012423287 0.5853 0.28839728 -0.13741891 0.52324 0.3903842 0.15276924 0.31499565
0.6235365 -0.13524802 -0.10321646 -0.13885504 0.19836369 -0.42754295 -0.7745631 -0.37821648
-0.3834945 0.28075206 -0.56935614 -0.3324129 0.004031986 -0.5801525 0.5152859 -0.2558967
0.3364563 -0.5987067 0.4462842 0.16997841 0.62299305 0.67874384 0.2289137 -0.5166109
-0.14891717 -0.16271976 -0.4775958 0.7032306 -0.095974505 -0.16427384 -0.70578825 0.49072075
-0.09229358 -0.2408186 0.13598774 -0.23237272 -0.053881682 1.2279629 0.16892074 0.09835427
0.066081285 0.03236487 0.46064478 -0.423623 0.87218213 0.59935033 -0.3751969 -0.5617496
0.13303167 -0.07288451 -0.8117585 -0.2366126 -0.71765965 -0.055904485 -0.29247555 -0.3955938
0.071593225 0.8039369 -0.06459085 0.17761804 0.68854976 0.0076509477 -0.16014841 -0.06253021
-0.10104437 -0.46368262 0.18433495 0.32898158 -0.06540257 -0.121090375 -0.17444617 -0.27735034
-0.21322367 -0.47629187 0.30753812 -0.056509238 -0.13227274 0.16600981 0.45687696 0.25187936
0.0013696463 0.010407908 -0.7637742 -0.20455657 0.33494255 -0.56137896 -0.5762275 0.36157057
0.9576106 0.6278281 -0.31771216 0.026400188 0.46139643 0.058907457 0.051581472 -0.038344998
-0.25816888 0.5684474 -0.36994478 -0.44663653 0.15973713 0.05447945 -0.37385902 0.29827628
-0.27934688 0.47855777 -0.24260569 -0.21831243 0.40870887 0.1261927 0.355963 0.03910496
-0.33569565 -0.6424102 0.783617 -0.1491665 -0.6552442 0.100674294 -0.3355761 -0.5121571
-0.1520596 0.23117521 0.59613657 0.61026794 -0.69410354 -0.76121056 0.43229416 0.017212352
0.8454292 -0.7445313 -0.151466 -0.23503254 -0.16955645 -0.252889 -0.49089354 0.32929966
0.28857708 -0.115253456 0.17421177 -0.3340003 0.24069604 0.13230006 -0.11080692 -0.10709839
-0.33599433 0.7969965 -0.5277846 -0.2617881 0.017333286 0.7245392 -0.06942069 -0.42414796
0.471923 0.048448864 -0.21431416 0.6407573 0.21786843 0.11175967 0.107058495 -0.6392391
0.016379494 0.23459914 -0.7090005 -0.12847312 1.1737024 -0.27592263 -0.05820529 0.044177935
-0.04030645 0.14921579 -0.41984144 -0.1056583 0.096938446 0.21666108 1.0017705 0.59186786
-0.6377445 -0.9212711 -0.05164339 -0.06692551 0.12586792 0.49696675 0.16344073 0.096610814
-0.28129596 -0.030130075 -0.49329236 0.12780336 0.37105298 -0.5613193 0.82813597 -0.29603615
00000000: 27b5 23bf 5402 a1be c7d3 333e 5a2a 90bd
00000010: 9a8a 0e3f 7438 18be 01e8 c7be 72b0 dabd
00000020: 3e3e 7cbe 013a 23bf 8bf5 66be 162d 0e3e
00000030: 804a 06bd 7ebe edbe 70ce 203e 65df 7e3e
00000040: 01fe b2be 95bd e4be 5ea7 3fbe 8914 d9be
00000050: 39cf 453f 475b 9bbe 98c1 01be 5d08 073f
00000060: 1c81 cb3e 890d 213f 625e 173f 0601 4f3f
00000070: 2fbb 50be 0ef8 853f 5d8d 42bd 02e0 a13e
00000080: 4fe1 593f 098d 23be 7dd5 9cbd b439 083e
00000090: b8b5 ae3d 42ec ad3c 9cfb 94be 7cd1 afbd
000000a0: f611 7c3e d102 ec3e 4a93 f2be b265 aa3e
000000b0: 44e4 153c 7218 8bbe 2b0e 283f adfd 21be
000000c0: 3ded 8f3e 0012 08bf 089b b33f b868 b33e
000000d0: b170 a1be 0974 f5be bf17 8e3e 938b c1be
000000e0: 0b8b 4b3c 39d6 153f cfa8 933e 8bb7 0cbe
000000f0: 0ef3 053f 70e0 c73e 8a6f 1c3e 1c47 a13e
00000100: 17a0 1f3f 757e 0abe 2763 d3bd 0430 0ebe
00000110: da1f 4b3e e9e6 dabe c449 46bf 97a5 c1be
00000120: 6459 c4be bcbe 8f3e 53c1 11bf 0632 aabe
00000130: c01e 843b e084 14bf c7e9 033f e404 83be
00000140: 0044 ac3e d844 19bf 5d7f e43e d20e 2e3e
00000150: 797c 1f3f 28c2 2d3f 5a68 6a3e 9d40 04bf
00000160: be7d 18be 02a0 26be 7087 f4be ec06 343f
00000170: 488e c4bd 6737 28be 8aae 34bf c03f fb3e
00000180: 6b04 bdbd 2799 76be 5f40 0b3e 1df3 6dbe
00000190: 0ab3 5cbd e32d 9d3f 8ff9 2c3e f76d c93d
000001a0: a055 873d 0791 043d a2d9 eb3e 1de5 d8be
000001b0: 5447 5f3f 066f 193f cf19 c0be d2ce 0fbf
000001c0: 7439 083e 7944 95bd 68cf 4fbf 934a 72be
000001d0: 8bb8 37bf 1afc 64bd 5bbf 95be 458b cabe
000001e0: 789f 923d cfce 4d3f 3548 84bd 81e1 353e
000001f0: cc44 303f cdb4 fa3b f2fd 23be d70f 80bd
00000200: 5af0 cebd cf67 edbe 4dc2 3c3e 4670 a83e
00000210: c8f1 85bd 3bfe f7bd 04a2 32be dd00 8ebe
00000220: 4e57 5abe 87dc f3be a375 9d3e 3b76 67bd
00000230: 8172 07be 7afe 293e c7eb e93e 55f6 803e
00000240: b485 b33a ee85 2a3c b586 43bf 4777 51be
00000250: 977d ab3e 88b6 0fbf a583 13bf c71f b93e
00000260: f825 753f 58b9 203f 2bab a2be 3545 d83c
00000270: 273c ec3e f248 713d 1847 533d a50f 1dbd
00000280: b62e 84be c585 113f 6769 bdbe 8bad e4be
00000290: 2192 233e d825 5f3d 736a bfbe abb7 983e
000002a0: 8e06 8fbe 8605 f53e a06d 78be 4b8d 5fbe
000002b0: 4a42 d13e a938 013e c840 b63e 862c 203d
000002c0: 4de0 abbe ff74 24bf 209b 483f 1abf 18be
000002d0: 15be 27bf 532e ce3d a1d0 abbe ba1c 03bf
000002e0: 83b5 1bbe 32b9 6c3e 689c 183f 853a 1c3f
000002f0: c5b0 31bf b2de 42bf a955 dd3e eb00 8d3c
00000300: 0c6e 583f 9a99 3ebf e719 1bbe 5fac 70be
00000310: 35a0 2dbe ab7a 81be 6656 fbbe f799 a83e
00000320: 60c0 933e 010a ecbd 9264 323e 1602 abbe
00000330: 0679 763e ab79 073e bdee e2bd 6756 dbbd
00000340: 7307 acbe f607 4c3f e41c 07bf 1709 86be
00000350: 89fe 8d3c 677b 393f 6f2c 8ebd ec29 d9be
00000360: e49f f13e 5172 463d 2c75 5bbe ac08 243f
00000370: e718 5f3e 41e2 e43d 7c41 db3d 2ca5 23bf
00000380: 4a2e 863c c23a 703e 0f81 35bf 758e 03be
00000390: e13b 963f bb45 8dbe ac68 6ebd ecf3 343d
000003a0: 6018 25bd 06cc 183e 75f5 d6be 6163 d8bd
000003b0: aa87 c63d 67dc 5d3e 043a 803f a784 173f
000003c0: 3943 23bf 6cd8 6bbf 0588 53bd 3e10 89bd
000003d0: 85e3 003e 6d72 fe3e 025d 273e e4db c53d
000003e0: 0606 90be 59d3 f6bc d190 fcbe e2de 023e
000003f0: a8fa bd3e 9fb2 0fbf b800 543f 0d92 97be
