critic_ckpt.pth (torch, 551044 bytes, 9 tensors)

fcs1.weight f4 [400, 33]
-0.03273177 -0.013879131 0.058841832 0.043322515 -0.106646955 -0.049128026 0.07792486 -0.018712219
0.07408665 -0.011093203 -0.04354106 -0.061537676 0.060589775 -0.037658654 -0.052893016 -0.0030219378
-0.0062856255 -0.04441795 -0.027396632 0.039032236 0.059300456 0.042575836 0.006230289 0.053114623
0.038297262 -0.006861645 0.05636651 0.004769268 0.07862944 -0.040101133 -0.003440977 -0.013945557
-0.032514527 -0.015142222 -0.031802792 0.021727653 -0.02906418 -0.031069033 0.07913903 -0.021430101
0.043434214 0.008938478 0.019925667 0.012355041 0.022794006 0.009399537 0.0029306423 0.012071723
0.005996212 -0.02260295 -0.017097987 0.00979481 0.0043567736 -0.02047169 0.022627681 -0.023881242
0.05262141 -0.0025484911 -0.015725398 0.08442609 0.04139277 0.13718045 -0.029689271 0.0014980094
0.0036308654 -0.102951504 0.0032790385 0.055928547 0.004138866 0.0031422616 -0.0020578012 -0.05810574
-0.025201852 0.06897493 0.015546755 -0.026285121 -0.033153106 0.04622966 0.056676716 0.018096551
0.013130327 -0.0010756853 0.010449165 -0.05065578 -0.04440837 -0.013151217 -0.02017394 -0.014005652
-0.0034882247 -0.015782848 -0.017430477 0.056679368 -0.018115366 -0.00938934 -0.025918 0.023719456
-0.021971272 -0.04349489 0.026160652 -0.004584849 0.09168971 -0.09609908 -0.035999797 -0.012132435
0.09179189 -0.10604114 0.09811326 -0.053543426 -0.07740685 -0.021605527 0.097178 0.0030635037
0.050397173 0.038910393 -0.028357 0.03619772 0.0024017058 -0.07904962 0.042196568 -0.021856045
-0.057303436 -0.035310946 -0.00021570786 -0.025880625 -0.008104029 -0.055093 0.030077267 -0.010198696
0.032071542 -0.011896169 0.00822553 -0.19295244 0.012942155 0.06128496 -0.03602147 -0.04473756
-0.035884995 0.0061819633 -0.031570505 -0.009559354 -0.02617203 0.030829739 -0.046513844 -0.047756042
-0.047776166 -0.042320546 0.013989617 0.02504531 0.018196212 -0.008111706 0.04354518 0.01944341
-0.014544385 -0.086048216 0.07555549 -0.007891654 0.008528117 0.053147603 0.008104844 0.016979583
-0.045866746 -0.043984212 0.018303357 -0.0030933097 0.0055084242 -0.06260406 0.045542978 -0.05046701
0.009212688 0.008939089 0.007995229 0.03621453 0.013318498 -0.028207082 0.00057274546 -0.012879006
-0.022610648 0.070786156 -0.07550743 -0.03292367 0.016133413 0.036658168 -0.035050835 -0.043057732
0.10531532 0.0222385 -0.037518 0.04660708 -0.029812468 -0.071762875 0.047490343 0.014724712
-0.038543403 0.0117442105 -0.04055267 0.002076851 -0.009670667 -0.045479722 0.00090807024 -0.03993376
0.058046464 -0.065645166 -0.052371692 -0.009145299 0.0036803363 0.01860915 0.03973573 -0.018293245
0.013692833 -0.024125436 0.004672527 0.0029632042 0.038375027 -0.02204714 0.040007703 -0.013505455
0.031088408 -0.008302797 0.0835328 -0.0037493878 0.027375184 -0.049929213 0.02741643 0.03171107
-0.03554038 0.026062764 -0.007454417 -0.046085186 0.03983463 -0.04248194 -0.028295236 0.022458915
0.05280539 -0.053596847 -0.034707684 0.026949782 0.004578084 -0.039306797 0.024678195 -0.022345027
-0.037502334 0.017399633 0.011619114 0.008104285 -0.026939726 -0.034190632 0.042126197 0.019710325
-0.063736364 -0.02042258 0.0021859384 -0.043121267 0.07618433 -0.0077664643 -0.06257066 0.009191647
00000000: c011 06bd 4b65 63bc 2204 713d f372 313d
00000010: b869 dabd 783a 49bd 1297 9f3d 5e4a 99bc
00000020: beba 973d 44c0 35bc 1c58 32bd ee0e 7cbd
00000030: fc2c 783d f63f 1abd 59a6 58bd b40b 46bb
00000040: a6f7 cdbb 99ef 35bd e76e e0bc 44e0 1f3d
00000050: 09e5 723d 0064 2e3d 7427 cc3b b88e 593d
00000060: 97dd 1c3d a6d7 e0bb 92e0 663d 8547 9c3b
00000070: 7908 a13d 1641 24bd 0482 61bb e87b 64bc
00000080: f42d 05bd 1517 78bc a543 02bd 31fe b13c
00000090: 0118 eebc 7c84 febc a513 a23d 2e8e afbc
000000a0: 13e8 313d b272 123c 273b a33c cc6c 4a3c
000000b0: 7fba ba3c 8400 1a3c 0510 403b 7ac8 453c
000000c0: df7b c43b d229 b9bc 1411 8cbc 697a 203c
000000d0: 44c3 8e3b 3fb4 a7bc b05d b93c 98a2 c3bc
000000e0: 8c89 573d 9604 27bb 8dd2 80bc 96e7 ac3d
000000f0: 778b 293d 0879 0c3e ea36 f3bc db58 c43a
00000100: d0f3 6d3b 3dd8 d2bd 23e5 563b 5515 653d
00000110: 539f 873b 67ee 4d3b 2ddc 06bb 4900 6ebd
00000120: 1d74 cebc ba42 8d3d d1b7 7e3c e553 d7bc
00000130: 8dcb 07bd 505b 3d3d d825 683d 383f 943c
00000140: 9520 573c 02fe 8cba f932 2b3c 6f7c 4fbd
00000150: 8de5 35bd 3478 57bc d243 a5bc f677 65bc
00000160: b39a 64bb 084b 81bc 5cca 8ebc a028 683d
00000170: ad66 94bc bfd5 19bc fc51 d4bc 4e4f c23c
00000180: 19fd b3bc b327 32bd dd4e d63c 803c 96bb
00000190: d1c7 bb3d 98cf c4bd 8674 13bd 1fc7 46bc
000001a0: 63fd bb3d 192c d9bd 9bef c83d 5a50 5bbd
000001b0: 7c87 9ebd 13fe b0bc 4205 c73d 10c5 483b
000001c0: 446d 4e3d 8160 1f3d f04c e8bc 0f44 143d
000001d0: f065 1d3b c4e4 a1bd 4fd6 2c3d 730b b3bc
000001e0: 02b7 6abd 36a2 10bd a32f 62b9 9b03 d4bc
000001f0: c3c6 04bc 33a9 61bd 9a64 f63c 6e18 27bc
00000200: 735d 033d 26e8 42bc 60c4 063c 5395 45be
00000210: 550b 543c f005 7b3d 408b 13bd bb3e 37bd
00000220: 25fc 12bd 1192 ca3b 1350 01bd d69e 1cbc
00000230: ba66 d6bc a68e fc3c 4d85 3ebd d79b 43bd
00000240: f1b0 43bd 4f58 2dbd b534 653c d22b cd3c
00000250: 3910 953c f6e6 04bc 6e5c 323d c947 9f3c
00000260: 924b 6ebc 0c3a b0bd d6bc 9a3d ff4b 01bc
00000270: 84b9 0b3c 4db1 593d 2eca 043c c418 8b3c
00000280: c5de 3bbd ca28 34bd ecf0 953c 20b9 4abb
00000290: 0380 b43b 8f36 80bd 468b 3a3d 7fb6 4ebd
000002a0: d0f0 163c 4275 123c 6cfe 023c b055 143d
000002b0: d435 5a3c 8a12 e7bc 4c24 163a 7702 53bc
000002c0: f739 b9bc 55f8 903d a4a3 9abd f8da 06bd
000002d0: 382a 843c e026 163d 7791 0fbd 4e5d 30bd
000002e0: 8faf d73d 842d b63c 79ac 19bd 11e7 3e3d
000002f0: 4739 f4bc 6af8 92bd 3c85 423d eb3f 713c
00000300: b0df 1dbd ca6a 403c 8e1a 26bd c71b 083b
00000310: b871 1ebc f248 3abd 900b 6e3a 9591 23bd
00000320: 21c2 6d3d f970 86bd b383 56bd 2ad6 15bc
00000330: cc31 713b 3772 983c efc1 223d b7db 95bc
00000340: e757 603c b5a2 c5bc ff1b 993b 5132 423b
00000350: 222f 1d3d 349c b4bc 1edf 233d fc45 5dbc
00000360: 1ead fe3c 7408 08bc 3f13 ab3d 4ab8 75bb
00000370: ec41 e03c 9382 4cbd 6c98 e03c 78e3 013d
00000380: ca92 11bd 9481 d53c 2f44 f4bb d2c3 3cbd
00000390: a329 233d 8b01 2ebd 69cb e7bc c2fb b73c
000003a0: 774a 583d 5e88 5bbd a529 0ebd cac5 dc3c
000003b0: c103 963b 2a00 21bd ed29 ca3c eb0c b7bc
000003c0: 0c9c 19bd ad89 8e3c 195e 3e3c d6c7 043c
000003d0: b3b0 dcbc 7a0b 0cbd 858c 2c3d 8c77 a13c
000003e0: 3688 82bd 414d a7bc f641 0f3b ed9f 30bd
000003f0: 8806 9c3d d37d febb 0c25 80bd 9098 163c

fcs1.bias f4 [400]
0.04884854 0.15531357 0.091708705 0.029089628 -0.11786736 0.116239846 0.00013574946 0.057746425
-0.08333554 -0.14484611 -0.15517066 -0.05246527 -0.12930161 -0.15080288 0.171468 0.068980634
-0.02309688 -0.15414913 -0.12356397 -0.16427751 -0.043404963 0.12377125 -0.022908065 0.038645163
-0.012777849 0.10555685 0.16646668 -0.070849225 -0.13399705 0.102112256 0.11521207 0.013840552
-0.078258 -0.04107061 0.09855023 0.052008074 -0.060534112 0.049527876 0.054472573 -0.049964175
-0.09982423 0.04263197 0.042811107 0.16889088 -0.028710565 0.025719529 0.03853505 0.07814143
0.081761405 -0.12136798 0.14784475 0.034129955 0.17377725 -0.1341847 0.15506881 0.12743288
-0.06647767 -0.16063845 0.028366296 0.10634437 -0.088926524 0.07228967 0.02732619 0.14782955
0.16959703 0.07909386 -0.030370088 -0.058252096 0.12274918 -0.093984045 -0.06470541 -0.10185284
-0.1735753 0.15668504 0.11163865 0.071296476 0.12848005 0.12409476 0.12022144 -0.11343129
0.11356758 -0.012334878 0.16705884 0.15319823 0.038904294 -0.09378234 0.16389804 -0.17241849
-0.074762896 0.051716357 0.020150699 -0.13191612 -0.10169176 0.033962965 -0.033575192 -0.14043632
0.100966856 0.12831435 -0.016831422 0.08816217 0.036107313 0.09665554 0.0011024057 0.05275113
0.1209967 -0.054111764 0.12514494 0.04872982 -0.14090084 0.1383416 -0.06814794 -0.17035958
-0.044023536 -0.17212263 -0.049877126 -0.043160185 -0.12531644 0.14180075 0.10867987 0.087659284
0.16068748 -0.07069361 0.06704216 0.12957026 0.13934517 0.063734345 0.07981704 0.15721613
0.14542542 -0.1387954 0.1429871 -0.068396136 0.11290339 -0.16966248 0.15529265 0.14517035
-0.04969636 0.1589526 0.035056338 -0.114848435 0.06867485 -0.10997827 -0.09107927 0.14980724
0.0052310163 -0.094626635 -0.16663814 -0.008917656 0.019701857 -0.030296316 0.007854089 0.14244586
-0.159003 0.0404306 -0.02005903 -0.15339087 -0.16915126 -0.008056439 -0.1677231 0.17216203
-0.14916007 -0.0049071936 -0.004174292 -0.10173654 0.16273384 -0.02516551 -0.06671842 0.14085425
0.056747783 -0.052379593 -0.16883385 -0.033503514 -0.04331786 -0.047554247 0.10342317 -0.013027448
0.047630828 0.14204341 0.0028748687 0.16415481 0.07308956 -0.13018364 0.087334044 -0.072017424
0.13744053 0.04957508 -0.105137065 -0.10521963 -0.17247505 -0.16653039 -0.11061786 0.04463722
-0.049951315 0.033678673 -0.1486563 -0.00088008435 -0.08232892 0.04546242 -0.12078701 0.08352108
-0.07257162 0.019280044 -0.07399491 0.14814043 0.016456734 0.084607415 -0.068644404 0.13952456
-0.064412855 0.11079036 0.16690148 -0.08761593 0.039338287 0.035305474 -0.00071570504 0.07530997
0.15408711 -0.0012299669 0.042558704 0.108062625 -0.1430998 0.10262962 0.00538127 -0.12649387
0.071546145 -0.07989047 -0.12803252 -0.056782633 0.022600377 0.100361854 -0.076912045 0.14583568
-0.1236824 -0.12730515 0.06848718 0.163587 0.13181639 0.12555423 0.010513873 -0.061864547
-0.12940551 -0.12415334 0.053975724 -0.012290537 -0.027665451 -0.033190567 -0.00033455458 -0.10199286
-0.03950153 0.14279936 -0.092504695 -0.012923709 -0.13747418 -0.06976103 0.058953878 0.075377904
00000000: 6815 483d 850a 1f3e c6d1 bb3d 5f4d ee3c
00000010: 7164 f1bd 280f ee3d f857 0e39 8487 6c3d
00000020: d3ab aabd 8a52 14be 0fe5 1ebe d3e5 56bd
00000030: a467 04be 126c 1abe 4f95 2f3e b845 8d3d
00000040: ab35 bdbc 45d9 1dbe 1b0f fdbd 5d38 28be
00000050: 67c9 31bd c87b fd3d b2a9 bbbc 644a 1e3d
00000060: 2f5a 51bc 312e d83d 3e76 2a3e 6619 91bd
00000070: 8636 09be 3b20 d13d 4ef4 eb3d 7cc3 623c
00000080: bb45 a0bd a839 28bd b4d4 c93d 6b06 553d
00000090: 9ef2 77bd bedd 4a3d a21e 5f3d 3ca7 4cbd
000000a0: a570 ccbd dc9e 2e3d b35a 2f3d bbf1 2c3e
000000b0: 6b32 ebbc c3b1 d23c eed6 1d3d 9d08 a03d
000000c0: 8672 a73d c78f f8bd 9d64 173e dacb 0b3d
000000d0: aaf2 313e b767 09be 5cca 1e3e c47d 023e
000000e0: 7225 88bd 687e 24be 6f60 e83c 14cb d93d
000000f0: 1c1f b6bd 9b0c 943d 2ddb df3c a160 173e
00000100: d8aa 2d3e f6fb a13d b1ca f8bc c099 6ebd
00000110: ec63 fb3d b57a c0bd 4584 84bd 3998 d0bd
00000120: b9bd 31be 0b72 203e cea2 e43d e303 923d
00000130: 4690 033e 6525 fe3d a936 f63d aa4e e8bd
00000140: 1f96 e83d 3a18 4abc 7911 2b3e ffdf 1c3e
00000150: 1c5a 1f3d f510 c0bd e3d4 273e 798e 30be
00000160: 4a1d 99bd 88d4 533d 1413 a53c 0515 07be
00000170: c543 d0bd c01c 0b3d 2486 09bd 8ace 0fbe
00000180: b6c7 ce3d d664 033e 0de2 89bc 5e8e b43d
00000190: 43e5 133d 57f3 c53d 997e 903a 9211 583d
000001a0: 1ecd f73d 4ca4 5dbd ff25 003e eb98 473d
000001b0: 4f48 10be 6ca9 0d3e 2691 8bbd be72 2ebe
000001c0: 0652 34bd ea40 30be f54b 4cbd bcc8 30bd
000001d0: f452 00be 3734 113e 8d93 de3d b686 b33d
000001e0: 428b 243e d0c7 90bd 664d 893d 11ae 043e
000001f0: 80b0 0e3e 2787 823d 1e77 a33d 44fd 203e
00000200: 67ea 143e 6220 0ebe 366b 123e 4613 8cbd
00000210: e439 e73d 00bc 2dbe 0905 1f3e 89a7 143e
00000220: 698e 4bbd 78c4 223e 3c97 0f3d a835 ebbd
00000230: 66a5 8c3d 4a3c e1bd c587 babd 1267 193e
00000240: f268 ab3b 9ccb c1bd 30a3 2abe 5c1b 12bc
00000250: ca65 a13c fb2f f8bc 70ae 003c 54dd 113e
00000260: afd1 22be 8f9a 253d d652 a4bc 7f12 1dbe
00000270: fd35 2dbe 28ff 03bc 9bbf 2bbe 3e4b 303e
00000280: 6bbd 18be 86cc a0bb 80c8 88bb 3f5b d0bd
00000290: b3a3 263e e627 cebc aba3 88bd 193c 103e
000002a0: 5d70 683d fc8b 56bd c8e2 2cbe fb3a 09bd
000002b0: 126e 31bd 3ec8 42bd 87cf d33d 1471 55bc
000002c0: 8b18 433d d473 113e 4b68 3c3b 3318 283e
000002d0: fbaf 953d dc4e 05be 31dc b23d df7d 93bd
000002e0: 36bd 0c3e 3d0f 4b3d 1a52 d7bd 647d d7bd
000002f0: 4d9d 30be f186 2abe 9e8b e2bd 85d5 363d
00000300: c099 4cbd a6f2 093d 5b39 18be 76b5 66ba
00000310: 119c a8bd cd36 3a3d 2e5f f7bd 1a0d ab3d
00000320: 6ea0 94bd 2ff1 9d3c a58a 97bd 20b2 173e
00000330: 46d0 863c a746 ad3d 7095 8cbd 87df 0e3e
00000340: e3ea 83bd 0ee6 e23d 39e8 2a3e fb6f b3bd
00000350: 2f21 213d 799c 103d 279e 3bba 1d3c 9a3d
00000360: 03c9 1d3e d736 a1ba 0952 2e3d f04f dd3d
00000370: c188 12be 7a2f d23d 5d55 b03b 9c87 01be
00000380: c986 923d 9d9d a3bd f51a 03be e894 68bd
00000390: 6d24 b93c 848a cd3d 1084 9dbd f355 153e
000003a0: 334d fdbd 485c 02be 0243 8c3d 5a83 273e
000003b0: e0fa 063e 4a91 003e 6142 2c3c ae65 7dbd
000003c0: e182 04be 1b44 febd a615 5d3d 405e 49bc
000003d0: a8a2 e2bc d5f2 07bd 2867 afb9 a2e1 d0bd
000003e0: 5bcc 21bd ff39 123e 1a73 bdbd f7bd 53bc
000003f0: 08c6 0cbe dfde 8ebd 9f79 713d bb5f 9a3d

batch_norm.weight f4 [400]
1.0474002 1.01141 0.9693126 0.97681355 0.9814514 0.96844226 0.98243225 0.96676886
1.0349758 0.9896459 0.997184 0.9749598 0.98987865 0.9597007 0.9682401 1.0300488
1.0049835 1.0198243 1.0058715 0.99333864 0.9873722 0.9479722 0.9576112 0.98815084
0.98704594 0.98040175 0.9807909 0.996728 0.9745784 1.0046586 0.9948945 1.0151561
0.96291596 0.9949514 0.9868849 0.98553103 0.9951086 0.9797788 1.1536908 0.9911113
1.0299052 1.0049121 0.9700706 0.9676276 0.99823123 0.96408165 0.9918626 0.997884
0.99384636 0.95551485 1.0351369 0.99317414 0.99035126 0.979133 0.97437197 0.9844535
0.98944306 0.9751252 0.986429 1.0095438 0.99636006 0.9798021 0.9824486 0.99494004
1.0030546 0.99755734 0.94900095 1.0054057 1.0058459 0.9792802 1.036813 0.9593832
1.0003656 1.0274184 0.98306763 0.93646675 0.9827103 1.016369 0.9864951 0.975845
0.98811734 1.0607071 0.99507976 0.98695433 0.96925837 0.98170364 0.9922362 0.97448266
0.97381204 0.97854614 1.0041362 0.9761609 0.99201053 0.99348253 0.9792351 0.98298633
0.9971566 1.0071133 1.0047559 0.96924424 0.97009057 0.9563562 1.013747 0.97728634
1.0004117 1.0136237 0.9582475 1.0505666 0.94815403 0.9858902 0.98445773 0.9335649
0.9923114 0.9413212 0.966282 0.96120125 0.96032894 0.9472359 0.9845643 1.0201564
0.94233024 1.0065296 1.0000688 0.9893948 0.9933981 0.975179 0.9841254 0.9304341
0.9593652 1.0049419 0.9880071 0.9709394 0.96388656 0.98631835 0.982037 0.9899096
1.0289342 0.995497 0.9962088 0.9963 0.9476202 0.97496384 0.9484177 0.99803376
0.9862696 0.9989925 0.93850154 0.9962157 0.93711215 0.98771065 0.9413129 0.9932725
0.96418804 0.99327004 0.9767354 0.98650306 0.9734925 0.9750415 0.97146815 0.9877195
0.9804443 0.94324327 0.9618259 0.9596392 0.9832139 1.0788064 1.1593065 1.0206772
0.9721426 0.9705725 0.97871864 0.98913425 0.97540957 0.9591472 0.9704329 0.98789245
0.95238835 0.9881197 0.9535071 0.9723473 0.9557026 1.0026408 0.9736001 1.1886916
0.9582537 0.9715133 0.99011993 0.9654557 0.97442067 0.99809396 0.993067 0.98787826
0.9917591 0.9971487 1.008957 0.95442873 1.1306263 1.0077167 0.96673673 1.0115943
1.0097991 0.97940576 0.9970692 0.95011014 0.96693027 0.9837771 0.9672945 0.9524367
0.96422887 0.9610005 0.9748239 0.9640256 0.97056305 0.95616466 0.9923898 1.0050204
1.0052357 0.9872954 0.98114663 0.9956319 1.0743979 0.9487956 0.96852636 0.9852997
0.98633444 0.93791443 0.9740419 0.9686004 0.9862163 0.99179 0.96980107 0.99259555
0.977017 0.9857488 0.98091364 0.972107 0.9622167 1.0373994 1.0022804 1.0618064
1.0001379 1.00102 0.9803549 0.9908892 1.0109972 0.98076165 0.987961 0.9578803
0.9950502 0.9628308 0.9891422 0.97298187 0.99995947 0.9731054 0.9823338 1.0066053
00000000: 3611 863f e275 813f df24 783f 7410 7a3f
00000010: 6640 7b3f d5eb 773f ae80 7b3f 2a7e 773f
00000020: 167a 843f 6f59 7d3f 7347 7f3f f796 793f
00000030: b068 7d3f f2ae 753f 95de 773f a4d8 833f
00000040: 4da3 803f 9a89 823f 66c0 803f 714b 7e3f
00000050: 6dc4 7c3f 4eae 723f 0226 753f 74f7 7c3f
00000060: 0baf 7c3f 9cfb 7a3f 1d15 7b3f 9129 7f3f
00000070: f87d 793f a798 803f 68b1 7e3f a3f0 813f
00000080: a981 763f 23b5 7e3f 7da4 7c3f c34b 7c3f
00000090: 70bf 7e3f c9d2 7a3f 24ac 933f 78b9 7d3f
000000a0: efd3 833f f6a0 803f 8c56 783f 71b6 773f
000000b0: 158c 7f3f 0ece 763f b5ea 7d3f 5375 7f3f
000000c0: b76c 7e3f 9f9c 743f 5e7f 843f a940 7e3f
000000d0: a987 7d3f 76a8 7a3f 7170 793f 2505 7c3f
000000e0: 244c 7d3f cea1 793f 9c86 7c3f bb38 813f
000000f0: 7411 7f3f 4fd4 7a3f c081 7b3f 64b4 7e3f
00000100: 1864 803f eb5f 7f3f baf1 723f 22b1 803f
00000110: 8fbf 803f 1bb2 7a3f 4ab6 843f 239a 753f
00000120: fb0b 803f 7282 833f 52aa 7b3f 49bc 6f3f
00000130: e792 7b3f 6118 823f f18a 7c3f fad0 793f
00000140: 42f5 7c3f 40c5 873f 8cbd 7e3f 0aa9 7c3f
00000150: 5121 783f ee50 7b3f 3103 7e3f b277 793f
00000160: bf4b 793f 0082 7a3f 8987 803f aee5 793f
00000170: 67f4 7d3f df54 7e3f 27af 7a3f fea4 7b3f
00000180: a845 7f3f 17e9 803f d79b 803f 6420 783f
00000190: db57 783f c3d3 743f 76c2 813f 702f 7a3f
000001a0: 7e0d 803f 6cbe 813f b54f 753f f778 863f
000001b0: 39ba 723f 4d63 7c3f 6c05 7c3f 1cfe 6e3f
000001c0: 1f08 7e3f 6dfa 703f 425e 773f 4911 763f
000001d0: 1ed8 753f 0d7e 723f 680c 7c3f 7c94 823f
000001e0: 8e3c 713f f6d5 803f 4102 803f fa48 7d3f
000001f0: 564f 7e3f 55a5 793f a4ef 7b3f ee30 6e3f
00000200: f598 753f f0a1 803f 09ee 7c3f 7c8f 783f
00000210: 45c1 763f 5c7f 7c3f c766 7b3f b76a 7d3f
00000220: 1eb4 833f e4d8 7e3f 8a07 7f3f 840d 7f3f
00000230: 3d97 723f 3b97 793f 81cb 723f 247f 7f3f
00000240: 2a7c 7c3f f9bd 7f3f a341 703f fe07 7f3f
00000250: 95e6 6f3f 9bda 7c3f e2f9 703f 1b47 7e3f
00000260: 07d5 763f f246 7e3f 550b 7a3f 778b 7c3f
00000270: ce36 793f 529c 793f 23b2 783f 2fdb 7c3f
00000280: 66fe 7a3f 6478 713f 393a 763f eaaa 753f
00000290: e8b3 7b3f 5416 8a3f 2864 943f 8da5 823f
000002a0: 56de 783f 7077 783f 4e8d 7a3f e737 7d3f
000002b0: 71b4 793f ac8a 753f 4a6e 783f 85e6 7c3f
000002c0: b9cf 733f 6af5 7c3f 0b19 743f c1eb 783f
000002d0: eda8 743f 8956 803f db3d 793f 0c27 983f
000002e0: 1d50 753f 18b5 783f 8078 7d3f 1b28 773f
000002f0: a273 793f 1683 7f3f a439 7e3f 97e5 7c3f
00000300: ede3 7d3f 2345 7f3f 8125 813f 7155 743f
00000310: 5db8 903f dcfc 803f 0f7c 773f ec7b 813f
00000320: 1941 813f 56ba 7a3f ed3f 7f3f 6b3a 733f
00000330: be88 773f d1d8 7b3f 9da0 773f e4d2 733f
00000340: b4d7 763f 2104 763f 0f8e 793f 62ca 763f
00000350: d276 783f 35c7 743f 420d 7e3f 82a4 803f
00000360: 90ab 803f 64bf 7c3f 6d2c 7b3f bbe1 7e3f
00000370: df85 893f 45e4 723f 58f1 773f 9a3c 7c3f
00000380: 6a80 7c3f 291b 703f cf5a 793f 32f6 773f
00000390: ac78 7c3f f3e5 7d3f e244 783f be1a 7e3f
000003a0: c91d 7a3f 095a 7c3f 281d 7b3f 01dc 783f
000003b0: d553 763f 81c9 843f b94a 803f 46e9 873f
000003c0: 8504 803f 6c21 803f 8af8 7a3f eaaa 7d3f
000003d0: 5b68 813f 3213 7b3f 03eb 7c3f a537 753f
000003e0: 9cbb 7e3f 147c 763f 6c38 7d3f 5715 793f
000003f0: 58fd 7f3f 6f1d 793f 3a7a 7b3f 71d8 803f

batch_norm.bias f4 [400]
-0.041521885 -0.045704253 -0.025192806 -0.046718244 -0.028083403 -0.046311717 -0.024791595 -0.027255114
-0.05155046 -0.04079835 -0.042690907 -0.007221388 -0.027285919 -0.04182462 -0.014341877 -0.03404166
-0.04082821 -0.012087951 -0.02760191 -0.008306639 -0.0072739716 -0.022682128 -0.04705747 -0.0034606578
-0.018077498 -0.0024706458 0.0042625335 -0.017689262 -0.037155177 -0.020338982 -0.0180446 0.010564083
-0.031862978 -0.012547111 -0.030084528 -0.016721593 -0.01651183 -0.03566973 -0.028508918 -0.021850644
-0.027246783 0.0028162994 -0.0067323875 -0.031195592 -0.019272206 -0.042228457 -0.004540162 -0.03808471
0.005478408 -0.03491901 -0.018630015 0.0038748037 -0.034650132 -0.035795037 -0.004829473 -0.02841454
-0.02185543 -0.0098446645 -0.011124505 -0.045339987 -0.017834757 -0.02208369 -0.0143624935 0.0009093887
0.0045655817 0.0043663406 -0.0143026225 -0.00041821648 -0.03378163 -0.035583016 -0.037703183 0.006150248
-0.025477085 -0.03838228 0.003044331 -0.025008244 -0.014149253 -0.038677346 0.022466598 -0.03314361
-0.0339632 -0.021419607 -0.02231776 -0.018551538 -0.047010005 -0.021393633 -0.0155409975 -0.016443193
-0.010195635 -0.027605938 -0.0009234257 -0.0026389882 -0.0034166905 -0.00990146 -0.046404313 -0.04810485
-0.029219033 -0.039229568 -0.03403303 -0.023758076 -0.035112996 -0.03238362 -0.011519488 -0.0306197
-0.0055466807 -0.016715143 -0.011335715 -0.043874826 -0.027306568 0.0037585176 -0.016807204 -0.023271384
-0.04647216 -0.02138224 -0.017220696 -0.025752408 -0.04020029 -0.018134322 -0.03650288 -0.0526364
-0.023582999 -0.05034728 0.0082507655 -0.01460406 -0.0006534323 -0.04897364 -0.036840927 -0.055591933
-0.0077500152 -0.012100512 0.0005544973 -0.044896185 -0.050669882 -0.026792051 -0.038116846 0.011968372
-0.00252084 -0.03894375 -0.030707931 0.0030408183 -0.007592605 -0.025034726 -0.04801272 -0.009502668
-0.01904659 -0.044696275 -0.06514339 -0.02774035 -0.015429705 -0.008521796 -0.071538426 -0.022289166
-0.024773093 -0.054354936 -0.03587716 -0.0020810252 -0.052701224 -0.05690608 -0.0153377615 0.0069120573
-0.032876898 -0.04421486 -0.026328512 -0.037072953 -0.007134486 -0.023989936 -0.016844086 -0.03350145
-0.031778183 -0.013057368 -0.018756527 -0.005939065 -0.0010172748 -0.026005479 0.0052068057 -0.030270904
-0.058451917 -0.024318337 -0.044062596 -0.046423025 0.027787298 -0.017044965 -0.0019838437 -0.0111949
-0.036635138 -0.030962743 -0.0021994577 -0.031000102 -0.024528198 0.011595943 -0.03262036 -0.0010563637
-0.018409573 -0.02376161 -0.046650432 -0.041729987 -0.049401157 -0.049699903 -0.0041739536 -0.01368883
-0.026625177 0.0026109866 -0.017332952 -0.011026304 -0.022403503 -0.033077102 0.0075338637 -0.018873021
-0.034901474 0.004526603 -0.05292033 -0.029781071 -0.0072607575 -0.042305674 -0.022989495 -0.025075633
-0.017064452 -0.026002677 -0.031598866 -0.0025768252 -0.016141526 -0.058656465 -0.059722465 -0.026198039
-0.029327715 -0.048800085 -0.030150518 -0.03497779 -0.016607825 -0.02951025 0.020033132 -0.02214288
-0.0121814525 -0.008136143 -0.031774595 -0.0356486 -0.009030651 -0.026515225 -0.030793196 -0.023349503
-0.0063398713 -0.0022017253 -0.03037087 -0.022798462 0.01352226 -0.046779424 -0.0085253315 -0.027094154
-0.011796567 -0.023865977 -0.044656392 -0.017868903 -0.035793237 -0.015574831 -0.011123293 -0.030955976
00000000: da12 2abd 6234 3bbd 2561 cebc a15b 3fbd
00000010: 2a0f e6bc 5bb1 3dbd be17 cbbc 1e46 dfbc
00000020: 9326 53bd 2c1c 27bd a9dc 2ebd 65a1 ecbb
00000030: b886 dfbc 4b50 2bbd 31fa 6abc 456f 0bbd
00000040: 7b3b 27bd 8b0c 46bc 671d e2bc 9218 08bc
00000050: 7f5a eebb dfcf b9bc 55bf 40bd 34cc 62bb
00000060: 4317 94bc 8fea 21bb b9ac 8b3b 12e9 90bc
00000070: 0730 18bd f09d a6bc 45d2 93bc fa14 2d3c
00000080: c182 02bd 6692 4dbc d473 f6bc b9fb 88bc
00000090: d143 87bc 6c1a 12bd 898b e9bc 1f00 b3bc
000000a0: a534 dfbc aa91 383b 5c9b dcbb e68d ffbc
000000b0: bfe0 9dbc bff7 2cbd a4c5 94bb b6fe 1bbd
000000c0: 3884 b33b 3c07 0fbd f99d 98bc 6bf0 7d3b
000000d0: 4ced 0dbd d19d 12bd 8e40 9ebb 9cc5 e8bc
000000e0: 290a b3bc 844b 21bc 8e43 36bc 6cb6 39bd
000000f0: 321a 92bc dbe8 b4bc aa50 6bbc 0b64 6e3a
00000100: e09a 953b 8513 8f3b 8c55 6abc 1144 dbb9
00000110: 9b5e 0abd 7fbf 11bd a76e 1abd 0588 c93b
00000120: 52b5 d0bc bd36 1dbd 6683 473b 17de ccbc
00000130: 45d2 67bc 236c 1ebd df0b b83c 98c1 07bd
00000140: ff1c 0bbd 2c78 afbc bcd3 b6bc 65f9 97bc
00000150: 908d 40bd b341 afbc ab9f 7ebc e0b3 86bc
00000160: 980b 27bc d925 e2bc 0d12 72ba e0f2 2cbb
00000170: 8eea 5fbb bc39 22bc 7312 3ebd 9709 45bd
00000180: c15c efbc 2faf 20bd 3866 0bbd 4ca0 c2bc
00000190: a5d2 0fbd b0a4 04bd 3cbc 3cbc 2ad6 fabc
000001a0: eec0 b5bb 32ee 88bc 6fb9 39bc 17b6 33bd
000001b0: 06b2 dfbc 7651 763b 43af 89bc a1a3 bebc
000001c0: 9759 3ebd cf29 afbc 6b12 8dbc b7f6 d2bc
000001d0: 0fa9 24bd 6e8e 94bc 0b84 15bd 4499 57bd
000001e0: 2231 c1bc f338 4ebd 382e 073c de45 6fbc
000001f0: 194b 2bba 9598 48bd 83e6 16bd 5eb4 63bd
00000200: d7f3 fdbb 3a41 46bc af5b 113a 10e5 37bd
00000210: 398b 4fbd 017b dbbc 6920 1cbd fe16 443c
00000220: ad34 25bb 7b83 1fbd 338f fbbc 7748 473b
00000230: 63cb f8bb a015 cdbc fca8 44bd 14b1 1bbc
00000240: 9807 9cbc 7113 37bd e669 85bd bb3f e3bc
00000250: e0cc 7cbc 019f 0bbc bd82 92bd c597 b6bc
00000260: f1f0 cabc 48a3 5ebd eef3 12bd cf61 08bb
00000270: 3ddd 57bd 5a16 69bd 3c4b 7bbc 8a7e e23b
00000280: eda9 06bd a41a 35bd e4ae d7bc cfd9 17bd
00000290: 68c8 e9bb 8b86 c4bc 9cfc 89bc d138 09bd
000002a0: d729 02bd 92ee 55bc 4aa7 99bc 7d9c c2bb
000002b0: 1456 85ba 7109 d5bc da9d aa3b b0fa f7bc
000002c0: 476b 6fbd 4037 c7bc fb7a 34bd 1226 3ebd
000002d0: 30a2 e33c e2a1 8bbc 6003 02bb d06a 37bc
000002e0: ba0e 16bd 94a5 fdbc c724 10bb edf3 fdbc
000002f0: 5cef c8bc e9fc 3d3c ed9c 05bd af75 8aba
00000300: accf 96bc b5a7 c2bc 8614 3fbd 10ed 2abd
00000310: de58 4abd 2092 4bbd a9c5 88bb 1d47 60bc
00000320: 0b1d dabc 161d 2b3b d6fd 8dbc aca7 34bc
00000330: 8d87 b7bc db7b 07bd a1de f63b 989b 9abc
00000340: d9f4 0ebd e653 943b fdc2 58bd 6ff7 f3bc
00000350: a6eb edbb b748 2dbd 7754 bcbc 6a6b cdbc
00000360: c0ca 8bbc 9103 d5bc d06d 01bd f4df 28bb
00000370: 3c3b 84bc c341 70bd 8b9f 74bd 459d d6bc
00000380: ad40 f0bc 99e2 47bd 38fe f6bc df44 0fbd
00000390: 220d 88bc 7bbf f1bc 861c a43c fc64 b5bc
000003a0: b794 47bc 754d 05bc 1426 02bd 4404 12bd
000003b0: 4cf5 13bc 7536 d9bc 0342 fcbc 7547 bfbc
000003c0: b2be cfbb d24a 10bb 55cc f8bc d7c3 babc
000003d0: 788c 5d3c c89b 3fbd d5ad 0bbc 8ff4 ddbc
000003e0: 6346 41bc 9582 c3bc 9fe9 36bd ce61 92bc
000003f0: ee9b 12bd 932d 7fbc 793e 36bc 6397 fdbc

batch_norm.running_mean f4 [400]
0.14789507 0.15418059 0.10942555 0.14740215 -0.0736369 0.23249793 0.36431938 -0.26107907
0.16727288 0.6831521 0.20250222 0.39876068 0.00080085953 0.34349215 0.5403012 0.12891373
0.794684 0.23200515 -0.35679787 -0.22334301 0.22581986 0.52944046 0.22473195 0.16329066
-0.31841668 0.5154515 0.32001886 -0.16131042 -0.20321575 0.056291394 -0.1930256 0.18209565
0.12480317 -0.12141484 -0.046208315 -0.020285074 -0.19341938 -0.12137209 -0.0051433435 0.15188682
0.12058924 -0.09559284 0.64880544 0.7212483 -0.07414134 0.5416957 0.17711365 0.019595644
0.551031 0.29053062 0.1758144 0.31001207 0.06985959 -0.11139577 -0.12354608 0.47639352
-0.1848763 0.36969396 -0.060255636 0.24351363 0.15705019 -0.07383172 0.3013038 0.947361
-0.36335608 -0.4660447 0.37783012 0.14437404 0.53421384 0.066868976 0.4466396 -0.2003159
-0.6401613 0.17623492 0.3243498 0.9374538 0.35612538 0.6466725 -0.21673362 -0.27258778
0.45341375 0.06901653 0.24159811 0.4486326 0.0045827734 -0.2684664 0.08034065 0.23156877
0.17561261 -0.14029534 -0.32563603 -0.17959534 -0.1746335 -0.51716405 -0.0026862873 -0.13384736
0.5302804 0.057342667 -0.0807826 -0.15021406 0.6819263 0.31459668 -0.010019964 0.3686995
0.56689614 -0.03547757 0.21244238 0.29244232 -0.1301602 0.54630977 -0.41958156 0.23877479
-0.0014582055 -0.7535112 -0.09393669 0.59428596 0.2220978 0.80125463 0.018079096 0.29974955
0.18615726 0.12062717 0.4464581 0.121379584 0.5644496 0.50276166 0.30025864 0.7159882
-0.05804488 0.051051725 -0.43443355 0.2570184 -0.17825848 -0.74848515 0.43939078 0.40420774
-0.22495174 0.45144552 0.15844743 -0.024626471 0.1078602 -0.07000599 0.42810968 0.5045224
-0.030349514 0.31511083 0.4523327 0.19147706 -0.47674486 0.10274964 0.56852293 0.5423532
-0.13563496 0.53449374 0.24393041 0.14232093 0.73828423 0.22391056 0.25120324 0.12746
0.10240595 0.45438498 -0.20228282 0.23745725 0.55119973 -0.13808188 0.035310082 0.071780816
-0.104121424 0.11228771 -0.24959685 -0.5118421 0.57210636 -0.18130216 0.23417853 -0.40974146
0.5653128 0.2589826 0.44508302 0.051898904 -0.403268 -0.19221637 0.24640939 0.054976035
0.0596919 0.047446597 -0.33149067 0.49424037 -0.28105083 0.016206477 -0.41278678 -0.0514129
0.12340185 -0.042807333 -0.1018598 -0.26818636 0.107151754 0.67090106 0.45740998 -0.57412434
0.36724228 -0.10565784 0.78681594 -0.115846194 0.35979754 -0.22838826 -0.388342 0.22453645
0.069691785 0.5845896 1.0269697 -0.037749674 0.08627118 0.17433524 0.10873534 0.47989717
0.23605156 -0.4590151 0.2053707 0.33267605 -0.25330716 0.53282785 0.52450335 -0.088225655
0.0368134 -0.30381784 0.25427696 0.088115975 0.252987 0.70135427 -0.15699552 0.31273222
-0.012898756 0.6036093 0.26753032 0.2409687 0.06132299 0.093232505 0.31725758 0.046260018
-0.28926924 -0.647223 -0.30256647 0.3302349 0.030267918 0.4648281 -0.3333166 0.3506778
-0.12065927 0.058738306 0.1804252 0.23102877 -0.18351434 -0.46533585 -0.23527303 0.71318454
00000000: ce71 173e 84e1 1d3e 811a e03d 97f0 163e
00000010: f1ce 96bd f013 6e3e 1288 ba3e 28ac 85be
00000020: 9549 2b3e 0ee3 2e3f be5c 4f3e 5c2a cc3e
00000030: c6f0 513a 34de af3e 2e51 0a3f f601 043e
00000040: 6970 4b3f c292 6d3e 36ae b6be 08b4 64be
00000050: 523d 673e 6989 073f 2220 663e ab35 273e
00000060: 8307 a3be a1f4 033f 83d9 a33e 8f2e 25be
00000070: ca17 50be ce91 663d 81a8 45be 4877 3a3e
00000080: ce98 ff3d 58a8 f8bd ee44 3dbd e22c a6bc
00000090: bb0f 46be ee91 f8bd 7e89 a8bb 3888 1b3e
000000a0: 7ef7 f63d 2ec6 c3bd 1d18 263f bba3 383f
000000b0: 6ad7 97bd 92ac 0a3f 485d 353e 0b87 a03c
000000c0: 5e10 0d3f 6ec0 943e b108 343e e7b9 9e3e
000000d0: 8b12 8f3d 7723 e4bd ba05 fdbd dae9 f33e
000000e0: 3650 3dbe 8748 bd3e 9dce 76bd a35b 793e
000000f0: c4d1 203e 1635 97bd 7e44 9a3e 4086 723f
00000100: cf09 babe 699d eebe f372 c13e cad6 133e
00000110: 3dc2 083f 9af2 883d f2ad e43e 9c1f 4dbe
00000120: 9ce1 23bf ed76 343e 2d11 a63e f9fc 6f3f
00000130: 1156 b63e 548c 253f 6bef 5dbe a090 8bbe
00000140: d925 e83e 8a58 8d3d 7f65 773e 2cb3 e53e
00000150: 172b 963b 6e74 89be a489 a43d 5d20 6d3e
00000160: cbd3 333e 95a9 0fbe c4b9 a6be d7e7 37be
00000170: 20d3 32be dd64 04bf 6c0c 30bb 480f 09be
00000180: 75c0 073f 25e0 6a3d 5971 a5bd b7d1 19be
00000190: b992 2e3f d112 a13e c62a 24bc 2ec6 bc3e
000001a0: 1b20 113f ee50 11bd 7f8a 593e 00bb 953e
000001b0: b748 05be f5da 0b3f 65d3 d6be 6181 743e
000001c0: 4221 bfba 1ce6 40bf e161 c0bd 2023 183f
000001d0: 9b6d 633e 061f 4d3f 9d1a 943c c678 993e
000001e0: 02a0 3e3e 610b f73d 2896 e43e dc95 f83d
000001f0: c57f 103f fdb4 003f 80bb 993e 014b 373f
00000200: 78c0 6dbd 9d1b 513d 136e debe ea97 833e
00000210: 6489 36be b99c 3fbf d4f7 e03e 51f4 ce3e
00000220: c059 66be de23 e73e 0b40 223e 74bd c9bc
00000230: cfe5 dc3d 4d5f 8fbd 3131 db3e 6128 013f
00000240: 8b9f f8bc 3556 a13e 2798 e73e 9012 443e
00000250: e717 f4be 676e d23d b88a 113f a9d7 0a3f
00000260: e4e3 0abe 95d4 083f e5c8 793e 94bc 113e
00000270: 3200 3d3f cf48 653e b69d 803e e084 023e
00000280: 36ba d13d 26a5 e83e 3a23 4fbe fe27 733e
00000290: 6d1b 0d3f 5665 0dbe 4ea1 103d d201 933d
000002a0: 9d3d d5bd 19f7 e53d 5196 7fbe 1508 03bf
000002b0: 9075 123f 46a7 39be 7fcc 6f3e a2c9 d1be
000002c0: 57b8 103f 5e99 843e ece1 e33e f293 543d
000002d0: 2579 cebe 5ed4 44be be52 7c3e 8d2e 613d
000002e0: 7e7f 743d 5d57 423d 25b9 a9be 130d fd3e
000002f0: e5e5 8fbe 72c3 843c ca58 d3be 5596 52bd
00000300: 1cba fc3d be56 2fbd df9b d0bd b94f 89be
00000310: 6172 db3d 2cc0 2b3f a431 ea3e d0f9 12bf
00000320: 2e07 bc3e 2363 d8bd c56c 493f c540 edbd
00000330: 6237 b83e 9dde 69be c3d4 c6be e2ec 653e
00000340: 91ba 8e3d aaa7 153f be73 833f 679f 1abd
00000350: f2ae b03d f084 323e a2b0 de3d 15b5 f53e
00000360: 80b7 713e 0704 ebbe b24c 523e 8454 aa3e
00000370: 7ab1 81be 6867 083f da45 063f a7af b4bd
00000380: a6c9 163d 038e 9bbe 9730 823e 2676 b43d
00000390: 8387 813e f48b 333f 6fc3 20be 701e a03e
000003a0: 4e55 53bc 2486 1a3f bcf9 883e 80c0 763e
000003b0: d12d 7b3d aff0 be3d 966f a23e 257b 3d3d
000003c0: 191b 94be 68b0 25bf fee9 9abe 8c14 a93e
000003d0: 6df4 f73c f3fd ed3e 79a8 aabe 0a8c b33e
000003e0: 351c f7bd 9497 703d 62c1 383e ce92 6c3e
000003f0: 2feb 3bbe 8040 eebe 6aeb 70be 4393 363f

batch_norm.running_var f4 [400]
1.4631264 3.545833 9.049242 1.0984322 3.3518531 15.610456 4.4882927 7.7415886
0.94615453 6.1439047 3.8179007 20.371033 3.029932 4.4896607 24.735003 3.6951084
1.7978568 2.0618322 0.45593137 2.3136206 2.3459926 33.099014 3.7935681 6.215102
7.27033 22.050482 23.465801 3.6986513 5.0653787 1.8832293 15.998623 2.9821508
14.206049 3.041012 1.7207174 9.250404 3.1979592 4.248031 1.2091045 6.8942437
1.1224554 1.401322 21.472464 1.1623605 1.8695247 3.6963353 3.956175 0.907989
2.1539154 10.097546 1.5355799 2.7284718 8.3958 10.408962 6.2087436 13.01484
0.819125 27.472178 0.7484454 2.0544734 6.580242 13.486094 12.41424 1.1256659
9.143051 21.526966 16.831114 9.613355 4.052104 4.2512803 1.6482822 16.118486
4.9919915 2.9764435 13.71565 23.640156 6.52457 2.9279222 6.8068647 3.8639355
2.056924 2.2452288 10.966561 4.248778 14.870171 6.044442 4.1192064 8.985844
7.315876 8.770188 5.222522 14.537769 3.5152078 13.697456 6.5894623 3.6483068
3.3917806 1.7311214 1.6346655 11.13981 4.127467 9.026786 1.1061735 0.9024524
1.351469 0.97361416 5.419522 1.8259314 9.607738 12.679907 7.6898236 19.631603
0.9305425 6.9462056 8.333969 21.674082 8.220854 24.563868 9.309435 1.155734
17.623127 1.8507357 3.5047545 6.175265 2.971409 3.862671 3.3827696 13.737178
28.323702 10.788399 7.254553 2.333527 8.884947 12.080547 1.2100204 23.008429
1.4065615 2.3769505 1.9649923 2.7159479 9.9321995 2.5583563 6.537909 12.553684
4.579124 0.49496126 9.862266 10.518195 6.1795588 5.6359735 3.815999 7.9830675
7.355459 2.5585096 15.636619 14.634778 2.3319263 2.600383 5.253278 2.8646507
5.6781473 19.218527 14.138744 2.7766633 16.550411 1.0518037 1.2172091 4.1628766
4.4829144 4.8595495 3.497916 2.5469673 34.73066 11.955099 15.945498 8.138393
1.201026 9.647394 7.1850452 5.243018 10.037013 11.775309 7.724942 1.2997425
6.5649133 10.034531 13.514742 3.015492 12.658802 13.514477 7.070554 19.164911
12.882296 13.272807 1.2226713 8.471113 1.0590017 2.1639137 13.426416 4.8724422
4.82971 7.928021 2.0599194 15.6017 3.6416388 10.918287 10.300243 13.4550705
7.6852255 22.225538 1.8330953 7.037198 11.564903 2.362831 1.7284039 4.6336203
4.4227114 3.9352188 1.9202222 3.3009002 0.96402925 7.3127723 1.910147 1.3746783
1.9031162 3.0295873 20.62061 1.3478646 2.5018382 6.021045 4.3751726 3.5306597
8.999506 4.240712 8.648245 7.4408336 4.4116216 2.6998367 4.661205 1.2833061
2.5047839 7.0797048 10.769416 9.133348 5.0706625 2.5909812 14.281273 11.654145
3.0456736 4.2547016 3.3184006 9.608182 1.0108382 9.023528 7.0708227 2.543146
00000000: ba47 bb3f eeee 6240 b2c9 1041 6d99 8c3f
00000010: c384 5640 6ec4 7941 18a0 8f40 18bb f740
00000020: 2f37 723f de9a c440 7c58 7440 e0f7 a241
00000030: 68ea 4140 4dab 8f40 49e1 c541 a87c 6c40
00000040: 2c20 e63f 0ff5 0340 d66f e93e 5c12 1440
00000050: be24 1640 6465 0442 d2c9 7240 1ee2 c640
00000060: 8ba6 e840 6367 b041 f6b9 bb41 b4b6 6c40
00000070: 9517 a240 a80d f13f 5cfa 7f41 8fdb 3e40
00000080: fa4b 6341 f19f 4240 7840 dc3f a801 1441
00000090: 5dab 4c40 dfef 8740 f0c3 9a3f a59d dc40
000000a0: 9eac 8f3f 855e b33f 9bc7 ab41 3bc8 943f
000000b0: 964c ef3f c290 6c40 f931 7d40 f871 683f
000000c0: c0d9 0940 8c8f 2141 e28d c43f 489f 2e40
000000d0: 3255 0641 1c8b 2641 07ae c640 c93c 5041
000000e0: 2db2 513f 05c7 db41 1e9a 3f3f 7e7c 0340
000000f0: 5891 d240 0bc7 5741 baa0 4641 d215 903f
00000100: f049 1241 3a37 ac41 1fa6 8641 4dd0 1941
00000110: d6aa 8140 7d0a 8840 e9fa d23f a9f2 8041
00000120: 65be 9f40 0d7e 3e40 4d73 5b41 0a1f bd41
00000130: 47c9 d040 1463 3b40 d6d1 d940 b84a 7740
00000140: a5a4 0340 d4b1 0f40 0977 2f41 fdf5 8740
00000150: 38ec 6d41 126c c140 8ad0 8340 04c6 0f41
00000160: a81b ea40 b152 0c41 e61e a740 b49a 6841
00000170: 2af9 6040 c828 5b41 e0dc d240 dc7d 6940
00000180: ef12 5940 6395 dd3f b83c d13f a93c 3241
00000190: 3614 8440 b76d 1041 1897 8d3f 1f07 673f
000001a0: f0fc ac3f c73e 793f b96c ad40 1fb8 e93f
000001b0: 4bb9 1941 e6e0 4a41 0913 f640 860d 9d41
000001c0: 0938 6e3f 5147 de40 f057 0541 8564 ad41
000001d0: 9e88 0341 cd82 c441 72f3 1441 17ef 933f
000001e0: 2afc 8c41 e8e4 ec3f e64d 6040 c59b c540
000001f0: 912b 3e40 0036 7740 4c7f 5840 7bcb 5b41
00000200: f196 e241 489d 2c41 4c25 e840 8258 1540
00000210: be28 0e41 ec49 4141 f3e1 9a3f 4311 b841
00000220: 350a b43f f51f 1840 de84 fb3f 17d2 2d40
00000230: 4aea 1e41 1cbc 2340 8d36 d140 e4db 4841
00000240: 2f88 9240 906b fd3e d7cb 1d41 874a 2841
00000250: f2be c540 e559 b440 5439 7440 4a75 ff40
00000260: ec5f eb40 9fbe 2340 972f 7a41 0d28 6a41
00000270: 483e 1540 ad6c 2640 da1a a840 7056 3740
00000280: 62b3 b540 8bbf 9941 4c38 6241 dab4 3140
00000290: 3e67 8441 81a1 863f 82cd 9b3f 4936 8540
000002a0: 0974 8f40 6e81 9b40 dbdd 5f40 8301 2340
000002b0: 32ec 0a42 1648 3f41 c320 7f41 dc36 0241
000002c0: 38bb 993f ba5b 1a41 e4eb e540 cec6 a740
000002d0: 9b97 2041 aa67 3c41 ba32 f740 f65d a63f
000002e0: c513 d240 708d 2041 623c 5841 d2fd 4040
000002f0: 748a 4a41 4c3b 5841 fa41 e240 bd51 9941
00000300: e21d 4e41 6b5d 5441 7e80 9c3f ae89 0741
00000310: 5e8d 873f 907d 0a40 9ad2 5641 0ceb 9b40
00000320: fc8c 9a40 59b2 fd40 b8d5 0340 90a0 7941
00000330: 9c10 6940 4eb1 2e41 cccd 2441 f847 5741
00000340: 5eed f540 e7cd b141 dea2 ea3f ba30 e140
00000350: d809 3941 a038 1740 573c dd3f 9e46 9440
00000360: da86 8d40 a0da 7b40 d7c9 f53f f341 5340
00000370: 9fca 763f 3b02 ea40 b27f f43f 75f5 af3f
00000380: 5099 f33f c2e4 4140 02f7 a441 d486 ac3f
00000390: 1e1e 2040 67ac c040 6a01 8c40 54f6 6140
000003a0: fafd 0f41 eab3 8740 365f 0a41 4f1b ee40
000003b0: 012c 8d40 20ca 2c40 9728 9540 6043 a43f
000003c0: 614e 2040 f18c e240 874f 2c41 3222 1241
000003d0: de42 a240 a3d2 2540 1880 6441 6177 3a41
000003e0: 51ec 4240 8426 8840 ad60 5440 1dbb 1941
000003f0: 2563 813f 5f60 1041 2e44 e240 e7c2 2240

fc2.weight f4 [300, 404]
-0.02185716 -0.043733843 -0.043626044 0.024544897 -0.011287584 0.020515382 -0.035909176 -0.052818827
-0.032980215 -0.062514044 -0.050542388 0.02049847 -0.04744496 -0.0631651 -0.017085565 -0.004900562
-0.018203478 0.010043698 -0.053398404 -0.04682963 -0.049884178 0.04209876 -0.011999369 -0.01353484
-0.044518296 0.008174789 -0.015356133 -0.037425436 0.02452843 -0.050708294 -0.019836737 -0.054841418
-0.04597623 -0.02853496 -0.010553049 0.0005063144 -0.043731365 0.008259549 -0.056234296 -0.0067166933
-0.026057072 0.016570281 0.04654309 -0.028827034 -0.042127013 -0.019757474 0.0013126897 0.034225043
-0.00034969972 -0.04372897 0.01365241 -0.032825556 0.05187546 -0.0338104 -0.02160132 0.028227419
0.047059733 0.03942416 0.027674137 -0.03474879 -0.027202746 0.015677199 -0.027722955 -0.0036327832
-0.026802482 0.021206604 0.028700281 0.04781285 -0.05509394 0.0054413155 -0.051594093 -0.04444562
-0.009503939 -0.010244011 -0.029050283 -0.0036999201 -0.031796783 -0.0072089555 -0.01484474 -0.031948175
0.006544227 -0.039868582 -0.016813945 0.037655815 0.0047936183 -0.041036323 0.035577737 0.012380094
0.0330441 0.04700682 -0.05480246 -0.0062472895 -0.015726754 -0.04379902 -0.04549566 0.04073385
0.046017263 -0.02546433 -0.0018411824 0.0086658085 -0.045866378 -0.041830413 0.010417011 0.00569303
-0.012686721 -0.028997429 -0.04835238 -0.013338253 0.027603524 0.009906935 -0.0011592851 -0.03198924
-0.022703074 0.024469152 -0.05810559 -0.009946264 -0.0026643735 -0.05664141 0.026871143 0.026067387
0.033527035 0.01362571 -0.037354954 0.00626283 -0.062982924 -0.014776907 0.037737045 -0.028883647
-0.05692822 0.04376263 0.053212505 0.009053431 -0.017398251 -0.020603284 0.03521148 -0.058650337
0.033126395 -0.002930514 -0.018998707 -0.012447895 -0.0148312105 -0.035375223 -0.051044438 -0.0493833
-0.055687543 -0.009083124 -0.0063308734 0.054180034 -0.025976349 0.023611007 0.047761504 0.037202578
0.016917288 -0.027948175 -0.047706723 -0.01756766 0.014842485 -0.047897458 -0.023325793 -0.02580673
0.05168802 -0.03098524 -0.02674559 -0.013836384 0.03342841 -0.060601387 -0.004565734 -0.06416967
0.008880668 0.036605723 -0.03435435 -0.03433982 0.01880693 0.011644916 -0.011074627 0.042032193
-0.039826304 -0.037382357 0.03206622 -0.004877703 0.0528647 -0.010799269 -0.049509343 0.001647947
-0.035585385 -0.04686229 0.029735826 0.0021014854 0.002488574 0.006361597 0.0029220178 0.039308492
0.025358723 0.049446285 -0.0059491317 0.026758686 -0.024917416 0.0002815519 -0.03102797 -0.009410462
-0.024996918 -0.028401718 -0.0064377873 -0.06536609 -0.01921566 -0.014280785 0.040980466 0.0056000273
0.0135441795 -0.00016841147 -0.052501474 -0.019478554 0.030499078 0.0264183 0.02878993 -0.020207167
-0.0027088458 0.012643102 -0.0008984248 -0.024698269 0.02391374 0.010134889 -0.025395386 0.015708324
-0.0040873205 -0.0057606283 -0.03897117 -0.044769403 0.04316365 -0.029045744 0.028470255 -0.01754495
0.008720197 0.0076280497 -0.045035668 -0.03920281 -0.072318956 -0.06324223 -0.041995894 -0.007916303
0.023301216 0.012059383 0.013687842 -0.04119326 -0.004636752 0.025190527 -0.038194638 -0.06210648
-0.051511418 0.023377419 0.021897666 0.029548831 -0.027418487 0.004639108 -0.0030303742 0.031063126
00000000: c90d b3bc 4222 33bd 39b1 32bd 6112 c93c
00000010: 8fef 38bc e00f a83c 8015 13bd 8e58 58bd
00000020: 4316 07bd 5d07 80bd 8905 4fbd 68ec a73c
00000030: a555 42bd b45c 81bd 07f7 8bbc e594 a0bb
00000040: 761f 95bc 538e 243c 49b8 5abd 6dd0 3fbd
00000050: 5a53 4cbd c06f 2c3d 0099 44bc 3cc1 5dbc
00000060: d158 36bd 8def 053c 4a98 7bbc 6a4b 19bd
00000070: d9ef c83c 80b3 4fbd a780 a2bc 65a1 60bd
00000080: 9251 3cbd 26c2 e9bc b2e6 2cbc 2fba 043a
00000090: a91f 33bd 0f53 073c ef55 66bd b517 dcbb
000000a0: a475 d5bc 66be 873c f8a3 3e3d ac26 ecbc
000000b0: 608d 2cbd 6dda a1bc 8f0e ac3a 8f2f 0c3d
000000c0: e757 b7b9 261d 33bd 5cae 5f3c 1774 06bd
000000d0: 5d7b 543d c67c 0abd 40f5 b0bc 303d e73c
000000e0: b5c1 403d 3a7b 213d dfb4 e23c bf54 0ebd
000000f0: 4bd8 debc 786d 803c 401b e3bc fd13 6ebb
00000100: e190 dbbc 79b9 ad3c da1c eb3c 68d7 433d
00000110: 2faa 61bd 104d b23b 5454 53bd 9c0c 36bd
00000120: 69b6 1bbc 7fd6 27bc dcfa edbc 5c7a 72bb
00000130: 583d 02bd 1a39 ecbb 5a37 73bc 17dc 02bd
00000140: f470 d63b 3d4d 23bd 66bd 89bc fc3c 1a3d
00000150: c913 9d3b b415 28bd f6b9 113d e1d5 4a3c
00000160: 4059 073d 398a 403d 8b78 60bd 10b6 ccbb
00000170: 65d5 80bc 9a66 33bd a859 3abd 8ad8 263d
00000180: 997c 3c3d 929a d0bc d453 f1ba 09fb 0d3c
00000190: 62de 3bbd 5e56 2bbd 1cac 2a3c 998c ba3b
000001a0: f7db 4fbc 048c edbc 250d 46bd b088 5abc
000001b0: c920 e23c b250 223c 27f3 97ba 2607 03bd
000001c0: ccfb b9bc 8873 c83c 2100 6ebd a8f5 22bc
000001d0: c59c 2ebb d300 68bd df20 dc3c 468b d53c
000001e0: a553 093d 5f3e 5f3c 8201 19bd 6d38 cd3b
000001f0: 31fd 80bd d71a 72bc 2992 1a3d 669d ecbc
00000200: 912d 69bd 7240 333d 5bf5 593d d854 143c
00000210: c786 8ebc 38c8 a8bc ea39 103d 563b 70bd
00000220: 8baf 073d de0d 40bb 2da3 9bbc 41f2 4bbc
00000230: 9bfe 72bc 9ce5 10bd f913 51bd 2546 4abd
00000240: 9f18 64bd 62d1 14bc 3773 cfbb e2eb 5d3d
00000250: 5acc d4bc df6b c13c 91a1 433d bb61 183d
00000260: 2096 8a3c 92f3 e4bc 2068 43bd 0eea 8fbc
00000270: e52d 733c 2030 44bd bc15 bfbc a368 d3bc
00000280: d1b6 533d c2d4 fdbc 9119 dbbc 00b2 62bc
00000290: 3aec 083d 2939 78bd 279c 95bb 636b 83bd
000002a0: 3980 113c e2ef 153d 26b7 0cbd e9a7 0cbd
000002b0: fe10 9a3c 51ca 3e3c 5a72 35bc f329 2c3d
000002c0: e820 23bd 3e1e 19bd de57 033d 23d5 9fbb
000002d0: a888 583d 6bef 30bc 4fca 4abd edff d73a
000002e0: fbc1 11bd acf2 3fbd 8c98 f33c 13b9 093b
000002f0: 5817 233b f274 d03b 537f 3f3b f101 213d
00000300: 19bd cf3c 3088 4a3d eff0 c2bb 0835 db3c
00000310: 9c1f ccbc 429d 9339 5f2e febc 572e 1abc
00000320: 56c6 ccbc b8aa e8bc 13f4 d2bb a8de 85bd
00000330: 296a 9dbc f4f9 69bc 22db 273d 6f80 b73b
00000340: 68e8 5d3c 9c97 30b9 c90b 57bd 7d91 9fbc
00000350: 34d9 f93c 316b d83c dcd8 eb3c 8089 a5bc
00000360: e486 31bb 0325 4f3c 4584 6bba 0654 cabc
00000370: bfe6 c33c ce0c 263c fc09 d0bc beae 803c
00000380: eeee 85bb a7c3 bcbb 3ca0 1fbd 1f60 37bd
00000390: 5ecc 303d 57f1 edbc 743a e93c 6dba 8fbc
000003a0: 28df 0e3c b8f4 f93b 5277 38bd 2093 20bd
000003b0: f61b 94bd 2485 81bd e303 2cbd 62b3 01bc
000003c0: 31e2 be3c b894 453c f842 603c 44ba 28bd
000003d0: e5ef 97bb 5d5c ce3c fb71 1cbd 5d63 7ebd
000003e0: a3fd 52bd 0082 bf3c bc62 b33c 6410 f23c
000003f0: bc9c e0bc a903 983b 3e99 46bb 1978 fe3c

fc2.bias f4 [300]
-0.05442813 -0.005974021 -0.021082424 0.005788088 -0.014171312 -0.048917916 0.024483796 -0.045301232
0.0166999 -0.024527546 -0.057238303 0.03401414 0.015717637 0.044352576 -0.010503725 0.04086909
-0.015784865 0.017664988 0.01016327 -0.0146045545 -0.048430398 -0.048074037 -0.00944818 -0.04486842
0.0053543076 0.020044755 -0.017456964 0.013984826 -0.019622765 0.01774922 0.01266697 0.0020366604
0.036163397 -0.032355733 -0.023564374 0.020551316 -0.019436097 0.027321754 0.017509852 0.008929776
0.03814917 0.044924863 0.029638125 -0.04525934 -0.014529302 -0.0019809129 -0.0011562121 -0.06362092
0.026219971 0.037774157 -0.072639614 -0.026425822 0.04326922 -0.022274941 -0.08219057 0.01877031
-0.03289028 0.019990949 -0.043628015 0.021661164 -0.05817744 -0.024397153 -0.018130623 0.0095368475
0.01022399 0.03339191 0.02368153 -0.04930748 -0.01889592 0.0035154629 0.008014372 -0.04117752
-0.007081013 0.03269488 -0.048590254 -0.03989464 -0.046083726 0.004061487 0.0302254 0.022826675
-0.05178389 -0.039785277 -0.012445468 -0.0011336753 0.027688721 -0.018633205 0.019062323 -0.015210535
0.01762214 -0.047183137 0.013777227 -0.026048321 -0.027499566 -0.037376836 0.045069877 0.0015895821
0.031567987 -0.053415608 0.010068673 -0.04771999 0.011311573 -0.0010953821 -0.009370719 0.04096766
-0.00886904 -0.025162607 -0.018290173 -0.07225977 -0.011864926 -0.05070015 -0.014826026 0.011427399
0.03530785 0.007937153 0.026192766 -0.031145766 0.014799865 0.0101753175 -0.01348342 0.03473829
0.010456186 0.01965081 -0.043570567 -0.018075949 -0.057344798 0.030343955 -0.06849519 -0.015654936
0.010547515 -0.04102611 -0.052609865 -0.017233033 0.0013399757 -0.052778587 -0.03226825 -0.053000454
0.015850386 -0.039660465 0.0083853435 0.03093454 -0.0079478575 -0.04188269 -0.011850983 -0.06290954
0.013869471 0.0064196438 -0.047757782 -0.009201065 0.025248418 -0.049505156 -0.021612119 0.0123822
-0.050664835 -0.06083901 -0.07127758 -0.054774165 0.040304698 -0.029544683 -0.052346278 -0.016731068
0.024850436 0.010304322 -0.04467553 -0.050121788 -0.020928806 -0.014289347 0.02475561 0.06708515
-0.06018866 -0.0044999854 -0.073907696 0.004411041 -0.041453406 -0.017177643 -0.026918484 -0.020703772
0.027434994 -0.037808772 -0.029241432 -0.035770383 0.0027157164 -0.013655003 0.016116686 -0.011309794
-0.023840686 -0.025134597 0.025302831 -0.041863043 -0.028990624 -0.011005843 -0.023939967 -0.041472252
-0.040261548 -0.00016479491 -0.029954687 0.016831255 0.01680186 -0.012168294 0.012794011 0.01702587
-0.0031142454 -0.016502062 0.030420035 -0.016279882 -0.029842915 0.017493708 -0.035098337 0.03319121
-0.026063615 0.031894114 0.038139474 0.01623868 -0.016500704 0.0012613148 -0.016049448 -0.018341253
0.06295879 -0.03036262 -0.050953217 -0.030099992 -0.02517762 0.025240166 -0.038035553 -0.0031793439
0.012282119 -0.0120184515 -0.0440566 -0.04765879 0.019232249 0.027791025 0.025231881 -0.034322295
0.0052776323 -0.057896268 -0.0024406752 -0.029713947 -0.015382336 -0.002734558 0.034625832 -0.041917235
-0.033307288 -0.039877575 -0.04170678 -0.00554697 -0.03475523 0.026135793 -0.03248971 0.030901399
-0.0032036742 0.041484393 0.040232662 -0.059117515 0.025849948 0.035066303 -0.050266005 -0.0576636
00000000: 08f0 5ebd b8c1 c3bb 0cb5 acbc 00aa bd3b
00000010: ca2e 68bc 275e 48bd 3e92 c83c c98d 39bd
00000020: 3bce 883c feed c8bc b672 6abd 6952 0b3d
00000030: 46c2 803c 0cab 353d d117 2cbc 5966 273d
00000040: 434f 81bc 2ab6 903c d883 263c f147 6fbc
00000050: f45e 46bd 48e9 44bd 8acc 1abc f3c7 37bd
00000060: 3073 af3b e634 a43c e801 8fbc 9d20 653c
00000070: ecbf a0bc d066 913c 1f89 4f3c 7e79 053b
00000080: 1220 143d 7287 04bd 130a c1bc 3c5b a83c
00000090: 7338 9fbc dfd1 df3c d270 8f3c 324e 123c
000000a0: 4e42 1c3d 2203 383d a7cb f23c dc61 39bd
000000b0: 4f0c 6ebc 34d2 01bb 0a8c 97ba af4b 82bd
000000c0: 44cb d63c 13b9 1a3d 14c4 94bd f77a d8bc
000000d0: 113b 313d f079 b6bc 8853 a8bd 31c4 993c
000000e0: f5b7 06bd 0fc4 a33c 4ab3 32bd c172 b13c
000000f0: 784b 6ebd 8adc c7bc ac86 94bc 7040 1c3c
00000100: 8682 273c f5c5 083d c5ff c13c a4f6 49bd
00000110: 9ecb 9abc ae63 663b b64e 033c c2a9 28bd
00000120: d807 e8bb 11eb 053d 9306 47bd 9068 23bd
00000130: 4ac2 3cbd 3916 853b 429b f73c 02ff ba3c
00000140: 581b 54bd e3f5 22bd 14e8 4bbc d597 94ba
00000150: 75d3 e23c aaa4 98bc 9728 9c3c 9c35 79bc
00000160: 4e5c 903c 1b43 41bd e1b9 613c 4a63 d5bc
00000170: c546 e1bc 7418 19bd 319b 383d 8659 d03a
00000180: 6f4d 013d 53ca 5abd 13f7 243c 0976 43bd
00000190: 2d54 393c ed92 8fba a587 19bc b4cd 273d
000001a0: 734f 11bc d021 cebc 46d5 95bc eefc 93bd
000001b0: 1b65 42bc f6aa 4fbd dce8 72bc fc39 3b3c
000001c0: f79e 103d d50a 023c 3692 d63c 6825 ffbc
000001d0: 227b 723c 60b6 263c 90e9 5cbc bd49 0e3d
000001e0: 6c50 2b3c bcfa a03c 0d77 32bd 0314 94bc
000001f0: 61e2 6abd e393 f83c 3547 8cbd c83e 80bc
00000200: 7ccf 2c3c ff0a 28bd 717d 57bd 4a2c 8dbc
00000210: 20a2 af3a 5c2e 58bd b62b 04bd 0117 59bd
00000220: abd8 813c 0373 22bd ae62 093c 6f6a fd3c
00000230: bb37 02bc 2f8d 2bbd a02a 42bc b8d6 80bd
00000240: c73c 633c e05b d23b aa9d 43bd 10c0 16bc
00000250: c5d5 ce3c ebc5 4abd e60b b1bc b6de 4a3c
00000260: ee85 4fbd 5332 79bd fbf9 91bd e05a 60bd
00000270: 8a16 253d b107 f2bc 0d69 56bd 980f 89bc
00000280: 2493 cb3c 75d3 283c b0fd 36bd 814c 4dbd
00000290: e372 abbc de1d 6abc 47cc ca3c f063 893d
000002a0: 6288 76bd 9d74 93bb eb5c 97bd 7e8a 903b
000002b0: 0ccb 29bd 21b8 8cbc 2784 dcbc f59a a9bc
000002c0: 5abf e03c 5fdd 1abd ba8b efbc f783 12bd
000002d0: 29fa 313b 3cb9 5fbc 2407 843c b74c 39bc
000002e0: 8b4d c3bc 12e7 cdbc e247 cf3c 9578 2bbd
000002f0: bf7d edbc da51 34bc c01d c4bc cfde 29bd
00000300: 4be9 24bd cccc 2cb9 8863 f5bc b3e1 893c
00000310: 0ea4 893c 865d 47bc f99d 513c d679 8b3c
00000320: 5e18 4cbb 552f 87bc 7033 f93c 635d 85bc
00000330: 2179 f4bc f74e 8f3c 46c3 0fbd 82f3 073d
00000340: 5d83 d5bc 67a3 023d 2338 1c3d fb06 853c
00000350: 7c2c 87bc b452 a53a 227a 83bc 6540 96bc
00000360: 8af0 803d 07bb f8bc 52b4 50bd 4294 f6bc
00000370: 4c41 cebc 77c4 ce3c 2bcb 1bbd 8a5c 50bb
00000380: f13a 493c 0ae9 44bc b274 34bd dd35 43bd
00000390: f38c 9d3c 01aa e33c 17b3 ce3c 8995 0cbd
000003a0: fdef ac3b a324 6dbd bcf3 1fbb aa6a f3bc
000003b0: 3206 7cbc 4536 33bb d1d3 0d3d 68b1 2bbd
000003c0: 396d 08bd ab56 23bd bbd4 2abd 5bc3 b5bb
000003d0: 805b 0ebd bb1a d63c ee13 05bd ee24 fd3c
000003e0: bcf4 51bb 8aeb 293d 01cb 243d 3525 72bd
000003f0: 45c3 d33c afa1 0f3d bae3 4dbd ab30 6cbd
